pretrained_weights/slim_160_latest.pth (torch_old, 981677 bytes, 127 tensors)

conv1.0.weight f4 [16, 3, 3, 3]
00000000: 0fa7 a9bc 4383 60bd fdb1 a9bd 1e5a 4bbd
00000010: 7792 6cbd 36df d3bd c62c dbbc 7517 85bc
00000020: 66f8 45bd c263 47bb b669 66bd 9870 09bd
00000030: 57d7 cdbc 020d 9cbd c3b5 96bd 9fed 493c
00000040: 02bc 00bd 6aaa dbbc 7f2d 223d 0ebc b43d
00000050: 6a3d 333e 8785 b73d 84c2 e53d 2ee9 213e
00000060: 1e36 313d 96ca 1d3d 34c2 b63d 50b5 eabb
00000070: 5dc9 f4bb ad41 0dbc 6aa4 49bd 9274 99bd
00000080: 5935 49bd 95ac 1abd 2eea 9cbd 163c 57bd
00000090: 2621 9e3b dfea 04bb 9975 e83b 4ae3 71bd
000000a0: ad55 d4bd 2f66 80bd 882c 51bd 37a7 c1bd
000000b0: 5f33 8abd b799 8ebb 7831 4c3c 1bd3 34bc
000000c0: 9f44 b33d 0116 413e 9f82 db3d 19e0 bb3d
000000d0: abfa 493e d2f4 f33d d221 0000 c004 0080
000000e0: fe1b 0080 2a0d 0000 7a10 0080 fb01 0000
000000f0: 4712 0000 7021 0080 4609 0080 f721 0000
00000100: 3605 0080 5b0e 0000 9821 0080 8c0b 0080
00000110: f814 0000 d908 0080 0306 0080 dd08 0080
00000120: 331f 0000 a511 0080 710f 0080 4910 0000
00000130: fb21 0000 ba16 0000 6a0a 0000 cc12 0000
00000140: 8a10 0080 5719 793d b49f 6e3d ea3c fa39
00000150: 94dc d7bb c006 0f3c 71d3 803c 9df9 8fbd
00000160: d551 57bd 62b8 9bbb b1a7 823d f9ce 9a3d
00000170: ad0b 993c 9b51 b0bc 4812 aabb 5a39 6a3c
00000180: 4876 adbd 4f72 7bbd 305b 82bb 9150 a63d
00000190: a3a3 bc3d eb1e c03c c80a 28bd 8944 e6bc
000001a0: 515b f0ba efce 9dbd 53f8 79bd 6650 49bb
000001b0: 5d06 3dbb 1ca2 d9bc 1b4e 40bd bab3 ee3c
000001c0: ce22 0a3c ca77 cb3c 5868 543b 11ca 50bd
000001d0: b611 bbbc 3be1 913b 1d94 dfbc 1370 23bd
000001e0: c7a8 2b3c 5654 c8bc ee87 913c fef5 9cbb
000001f0: 5e90 61bd bced 21bc 253a 263d d91b 7e3d
00000200: d8a6 103d 88dc 16bd 7cc7 8fbd b5b8 843c
00000210: a668 46bd 6521 c8bd 20d1 f8bc e46c 9d3c
00000220: 8ffc 073d c5f5 053d f829 953c 4369 163d
00000230: 3f7a cb3c 2415 eebc e121 a0bb 1ce3 a1bc
00000240: ee1a 6e3c 5cc6 ec3c c15f 0d3d 54aa da3c
00000250: 0529 193d 52d2 b43c 0d39 eebb fc49 1c39
00000260: e8ee 08bb fe8b 80bd ef12 9ebd 5a5d d4bc
00000270: 34f4 153d e920 d33c f5dc e23c 991e 523d
00000280: 04cc 873d fa9d c23d e8e8 003d 2e15 9e3c
00000290: ef92 693d b821 bf3d 6586 b73d 7ee8 0a3e
000002a0: 4a08 c03c dbd5 053d 14cd 883d 666a 87bd
000002b0: 3497 abbd 9bfc 1abd bfd1 38bd 09bb 9ebd
000002c0: 15d1 eebc fdad 8ebd 4da9 a5bd d0aa 89bd
000002d0: 88da c73c 97d6 333d f2a0 cfbc 393c ddbc
000002e0: 0ef3 22bb b66d bbbd b37c 7f3c 43d8 953d
000002f0: cccd 8dbc 0b83 44bd 11cf 8fbd c2ef 44bd
00000300: 2427 c2bc d0a7 3bbd 44eb 07bc e9c8 e7bc
00000310: 7927 55bd daae 88bc 605b 523d 9b4a 9b3d
00000320: 1ad1 3d3d 8939 bb3d ab6a e83d 4e1d b23d
00000330: 43db 6c3d 30b9 9f3d 34f2 553d 842d aebc
00000340: 42cc 37bc 3e92 debc fd6c 23bd 520d 5cbd
00000350: 6c85 4ebd 0801 31bc 734f cfbc fed5 27bd
00000360: bd21 0000 5f06 0080 2805 0080 9c22 0080
00000370: 280a 0080 fb13 0000 7b21 0080 ac18 0000
00000380: f821 0080 6d0e 0000 3714 0000 1302 0000
00000390: 4717 0080 c015 0080 591b 0080 b61f 0000
000003a0: 0303 0000 5714 0000 af02 0000 2d0a 0080
000003b0: 4812 0080 c70e 0080 9205 0000 c303 0000
000003c0: ad13 0080 a11d 0080 a407 0000 2e11 d7bc
000003d0: c2ca 753d d3de 66bc 5d85 81bd 6a65 5e3d
000003e0: 549c 073d 447a 8bbd 71c8 01bc d8f8 863c
000003f0: 5eb0 89bc 3908 863d 6880 37bb 4b80 8fbd
-0.020709543 -0.05481268 -0.08285902 -0.04964649 -0.057756867 -0.103453085 -0.026754748 -0.016246537
-0.048332594 -0.003042445 -0.056253158 -0.033554643 -0.025127096 -0.076196685 -0.07358887 0.01232472
-0.0314293 -0.026814658 0.03959417 0.08824931 0.17503896 0.08961015 0.112187415 0.15811607
0.0432645 0.03852328 0.0892376 -0.0071627274 -0.0074702934 -0.008621615 -0.049229063 -0.07492937
-0.049123142 -0.037762243 -0.07661854 -0.052547537 0.004825729 -0.0020281596 0.007094097 -0.05905465
-0.10367904 -0.0626949 -0.05106786 -0.09455722 -0.067480795 -0.0043518203 0.012462966 -0.01103666
0.08753323 0.1885605 0.10718273 0.091736026 0.19724528 0.1191193 1.2132e-41 -1.704e-42
-1.0042e-41 4.722e-42 -5.91e-42 7.1e-43 6.557e-42 -1.1995e-41 -3.327e-42 1.2184e-41
-1.87e-42 5.15e-42 -1.2051e-41 -4.142e-42 7.522e-42 -3.174e-42 -2.157e-42 -3.18e-42
1.1192e-41 -6.33e-42 -5.54e-42 5.842e-42 1.219e-41 8.153e-42 3.736e-42 6.743e-42
-5.933e-42 0.06081518 0.058257774 0.000477291 -0.0065875743 0.008729637 0.015725823 -0.07030032
-0.052568275 -0.0047522048 0.06379641 0.07559008 0.018682325 -0.021523288 -0.0051901676 0.0142959
-0.08469826 -0.06138831 -0.0039781556 0.081208356 0.09210899 0.023452243 -0.041025907 -0.028108852
-0.0018337761 -0.07705485 -0.061027836 -0.0030718087 -0.0028842904 -0.026566558 -0.046949487 0.029138435
0.00843115 0.024837393 0.0032410827 -0.050973956 -0.022835594 0.0044518984 -0.027292306 -0.039901804
0.010477251 -0.024454277 0.017765012 -0.0047900667 -0.05506932 -0.00988334 0.040582795 0.062038276
0.035315365 -0.03683141 -0.070204705 0.016201356 -0.048439644 -0.097719945 -0.030373156 0.019216962
0.033199843 0.032705087 0.018208489 0.03672148 0.024838565 -0.029062815 -0.004886851 -0.019761615
0.014532788 0.028903179 0.034515146 0.026692547 0.037392635 0.022072945 -0.0072699846 0.0001490488
-0.0020894352 -0.062767014 -0.07718455 -0.02592342 0.036609843 0.025772529 0.027693251 0.05129871
0.0663071 0.09502788 0.031472117 0.019297209 0.057024892 0.09332603 0.089611806 0.13565251
0.023441453 0.03267465 0.066797405 -0.06612091 -0.08378449 -0.03783856 -0.045121904 -0.07750518
-0.029152432 -0.069667794 -0.08088932 -0.06722033 0.024396196 0.04390582 -0.0253453 -0.027006255
-0.002486411 -0.09151785 0.015593695 0.07316639 -0.017310046 -0.047976535 -0.07021917 -0.048080213
-0.023700304 -0.045814335 -0.008295838 -0.028294044 -0.052039597 -0.016684938 0.051356673 0.07582589
0.046341993 0.09141833 0.1134847 0.08696996 0.05782629 0.077989936 0.052232936 -0.021261938
-0.011218132 -0.027169343 -0.03989886 -0.05372364 -0.05042021 -0.0108034685 -0.025306439 -0.040975563
1.2103e-41 -2.286e-42 -1.85e-42 -1.2416e-41 -3.643e-42 7.168e-42 -1.201e-41 8.85e-42
-1.2186e-41 5.175e-42 7.252e-42 7.44e-43 -8.35e-42 -7.802e-42 -9.81e-42 1.1376e-41
1.08e-42 7.297e-42 9.63e-43 -3.65e-42 -6.558e-42 -5.301e-42 1.998e-42 1.35e-42
-7.058e-42 -1.0629e-41 2.741e-42 -0.02625331 0.060007818 -0.014091211 -0.06324265 0.054295935
0.03310807 -0.0681043 -0.007921324 0.01647608 -0.016807731 0.06544537 -0.002800012 -0.07006892

conv1.1.weight f4 [16]
00000000: b2a5 ac3d ce87 903d ae05 0000 fcbb 543d
00000010: 4515 d43d 6788 f43d be98 703d 7e1f 123d
00000020: 571e 0000 b94c 2b3d e904 e53d 04db 443d
00000030: 79f9 f43d 7c15 0080 6122 413d 0e19 253d
0.084300414 0.07057153 2.037e-42 0.05193709 0.10355619 0.11940079 0.058739416 0.035674565
1.0884e-41 0.041821215 0.11182577 0.048060432 0.11961646 -7.707e-42 0.047151927 0.040307097

conv1.1.bias f4 [16]
00000000: b70a eb3d fd3e 843d 380f 0080 e468 af3d
00000010: 2db9 353d a2c8 32bd 31fd 233d 6149 d03d
00000020: 6a0a 0080 e32b b13d fa65 15bd 0874 cb3d
00000030: d2ad 2a3d 6734 0080 5d10 a13d 3be3 b73d
0.11476653 0.064573266 -5.46e-42 0.08564928 0.04436605 -0.04364837 0.040036384 0.10170246
-3.736e-42 0.08650949 -0.036474206 0.099342406 0.041669674 -1.8798e-41 0.07864449 0.08978888

conv1.1.running_mean f4 [16]
00000000: 55ea 2e3e 7298 2b3e de07 0000 cb79 beba
00000010: 1712 283d 984d 53bd a2a6 01bd d4ee 16bd
00000020: 8f06 0000 0e82 4a3b 7b89 2cbd 4352 03bd
00000030: fe94 5b3d cf03 0000 36bf 8e3a 73e2 e6bc
0.17081578 0.16757372 2.822e-42 -0.0014532147 0.041032877 -0.05158767 -0.031653054 -0.036848858
2.353e-42 0.0030900273 -0.0421233 -0.032060873 0.053608887 1.366e-42 0.0010890726 -0.028184151

conv1.1.running_var f4 [16]
00000000: 1d68 3f3d 242e 1e3d 0400 0000 dfe1 863b
00000010: 7b3f cf3c b7f6 0b3d 126d 0c3c 8797 d63b
00000020: 0400 0000 1512 363b efa8 a53c 65bf f93c
00000030: f0e7 133d 0400 0000 90e1 1b3b 932e fa3c
0.04673015 0.038618222 6e-45 0.0041162814 0.025298825 0.034170832 0.008570926 0.006548825
6e-45 0.0027781774 0.020222155 0.030486772 0.036109865 6e-45 0.0023785569 0.030539786

conv2.0.weight f4 [16, 1, 3, 3]
00000000: aa3d 89bc 6a8e d3bb 8491 62bd 0fea a5bd
00000010: 9576 703e daef 0d3d 943a ecbd f407 5e3e
00000020: e3b8 18be 61ac 5abd c21d 8f3e 4eb6 833e
00000030: 4e95 2fbd f5c1 0a3e 72f1 973c 84b4 613d
00000040: 83f1 a6be 2ecb 99be 9e1b 0000 2612 0080
00000050: 5915 0000 bd15 0080 7422 0080 131c 0080
00000060: a215 0000 5d05 0080 c001 0000 659b 55bc
00000070: e619 d93b 5c16 213c 3ff3 1e3c 8b53 87bc
00000080: f512 56be 0c7c 9abb 551c 723c 09bb 3e3e
00000090: 5a3d cfbc 72b8 67bd f383 39bd a431 0d3c
000000a0: 541c cebd 8073 5abe 0005 9abd 1699 cb3e
000000b0: 18ed 333e 58c6 3ebd f4b2 923d 856b 73bd
000000c0: fc64 aebc 850d 883e 0bd8 103e d079 3b3a
000000d0: 0ffb 2dbe 126e b4bd 6995 25bd 17f2 a03d
000000e0: 4238 debc 1756 1abd af50 fc3d 3656 fdbb
000000f0: 7452 61bd e129 c93d 6363 41bd 71ce e33c
00000100: 3025 a5bd dc4b 5a3b 370b 9b3c 95c6 84bd
00000110: 4392 eabc b15f 003d 7eec 7fbd 6859 363c
00000120: 700a 0080 4512 0000 c10c 0000 b801 0080
00000130: d506 0080 490b 0000 260d 0000 4415 0000
00000140: fd0a 0000 6847 b5bc 0d28 883a d7c4 2d3c
00000150: 3e0f 803c d3fa 27be 4eb9 473e 5dc6 9a3c
00000160: d6ba 41bd ef46 53bb a333 773c b2f8 3dbd
00000170: 4c5e 5f3c f04e 10bd 489e 06be addc 3bbd
00000180: e4d1 ccbc 1625 943e 9ff0 453d 890e 0a3c
00000190: 9f65 26be 9163 9cbe bae6 a13c d3b9 153d
000001a0: 6ffd 6dbc 3add 8cbd a668 7c3e acb3 813e
000001b0: 700d 18bd 2011 ba3c 4130 1dbd 0b35 353d
000001c0: 4021 f33e 4c8a a63d d5f6 67bd 9dea 9dbe
000001d0: 2e43 f1bd 4912 0000 f30f 0080 850e 0080
000001e0: ac03 0080 0d09 0000 690b 0080 5911 0000
000001f0: 3e02 0080 720a 0000 ff16 7e3b 31e8 b6bc
00000200: 3cf7 293c c172 23be 9d66 013e e3d5 953c
00000210: b3c4 03bd e7b9 863d 7ca2 e8bc bb92 64bc
00000220: 5be1 0d3c c932 643a 6b99 31be 8a91 883d
00000230: d7bb 053e 8d38 bebe 3ccb 0dbe 9a0b fe3e
-0.016753037 -0.006456186 -0.055314556 -0.08101284 0.23482735 0.03465257 -0.115346104 0.21682721
-0.14914279 -0.05338705 0.2795239 0.25725025 -0.042866997 0.13550551 0.018547747 0.055103794
-0.32606134 -0.30037826 9.907e-42 -6.51e-42 7.658e-42 -7.798e-42 -1.236e-41 -1.0071e-41
7.76e-42 -1.924e-42 6.28e-43 -0.013037537 0.006625402 0.009831991 0.009701549 -0.016519329
-0.20905669 -0.0047144946 0.014777263 0.18626036 -0.02529781 -0.056572385 -0.045291852 0.008617792
-0.10063997 -0.21333122 -0.07520485 0.39765233 0.17570913 -0.046575874 0.07163039 -0.05942871
-0.021288387 0.26572815 0.14144914 0.00071516354 -0.16990303 -0.08810057 -0.04042569 0.07858675
-0.027126435 -0.037679758 0.12320077 -0.0077312244 -0.055010274 0.09822441 -0.047213923 0.0278084
-0.080637336 0.0033309376 0.018926246 -0.06483189 -0.028634196 0.03134126 -0.062481396 0.011129715
-3.744e-42 6.554e-42 4.575e-42 -6.17e-43 -2.451e-42 4.048e-42 4.717e-42 7.629e-42
3.942e-42 -0.022128776 0.0010387913 0.010606012 0.015632268 -0.16404276 0.19504282 0.018893415
-0.04729732 -0.0032238325 0.015087995 -0.046379752 0.013633322 -0.03523153 -0.13146317 -0.04586475
-0.025002427 0.28934544 0.048325177 0.008426317 -0.16249703 -0.30544713 0.01976334 0.03655417
-0.014525755 -0.06878133 0.24649295 0.2533239 -0.03712219 0.022713244 -0.038376097 0.04424004
0.47486305 0.08131847 -0.05663188 -0.30843058 -0.11780392 6.56e-42 -5.722e-42 -5.209e-42
-1.317e-42 3.247e-42 -4.093e-42 6.223e-42 -8.04e-43 3.747e-42 0.003877103 -0.022327514
0.010373887 -0.15961744 0.126368 0.018290466 -0.03217001 0.06578427 -0.028397791 -0.013950999
0.008659686 0.00087050773 -0.1734368 0.066683844 0.13059936 -0.3715252 -0.13847059 0.49618226

conv2.1.weight f4 [16]
00000000: 1c43 8e3d f4ea af3d 890f 0000 122f 073e
00000010: 89c3 ac3d 85f6 603d c397 863d 418d 2e3d
00000020: 2512 0080 8fbe d43d 3b05 853d 0fac 1f3e
00000030: a3c2 b43d 380f 0080 e52c b73d d9d2 2e3e
0.06946394 0.085897356 5.573e-42 0.1320155 0.08435733 0.0549226 0.06571915 0.04261518
-6.509e-42 0.10387909 0.06495138 0.15592979 0.088261865 -5.46e-42 0.0894411 0.1707262

conv2.1.bias f4 [16]
00000000: 86ac 1a3e 2d94 d83d 41cd 2f8b 7cd6 84bb
00000010: e990 913c 32ce 283e 95ed 0abb 8082 c13d
00000020: 4e74 b48b f447 763e 7436 5c3d fe71 493d
00000030: 18a1 bc3d df48 918b c364 3e3e d0bb cc3d
0.15104875 0.10575137 -3.385819e-32 -0.004053889 0.017769294 0.16484907 -0.0021198739 0.09448719
-6.9508474e-32 0.24050885 0.053762868 0.049180977 0.09210414 -5.596161e-32 0.18593125 0.0999676

conv2.1.running_mean f4 [16]
00000000: 71d1 f93b b5bf d63a 0400 0000 d265 e3ba
00000010: f3e9 8b3b 777f 303b 8df6 8c3b 70fa 70bc
00000020: 0400 0080 b96c 7039 4177 123b e40c c53a
00000030: 8cb1 a13b 0400 0080 1dc9 a4ba a8f6 f739
0.0076238443 0.0016384037 6e-45 -0.001734907 0.0042698323 0.0026931444 0.004301852 -0.014708146
-6e-45 0.00022928686 0.0022348913 0.0015033749 0.0049344953 -6e-45 -0.0012572143 0.00047295284

conv2.1.running_var f4 [16]
00000000: 0801 3638 23fe 2c39 0400 0000 7587 f638
00000010: 7afe 3e39 67de 6c38 5da8 8937 4503 d237
00000020: 0400 0000 08be 8b38 a7c4 3338 53f1 1139
00000030: 1858 7439 0400 0000 8e0c 8f38 df11 3339
4.3393142e-05 0.00016497872 6e-45 0.00011755425 0.00018214612 5.6473913e-05 1.6410073e-05 2.5035473e-05
6e-45 6.6634326e-05 4.2860072e-05 0.00013918178 0.00023302471 6e-45 6.82111e-05 0.00017077428

conv2.3.weight f4 [32, 16, 1, 1]
00000000: 8e72 4d3c c93d 823a 147b fb05 be01 a6bc
00000010: d941 1b3d 323d 6c3d 2b8e e8bb 241b 6bbb
00000020: c731 6b07 d940 8ebc f8ea 40bd 486e 83bc
00000030: 72d1 3bbd 01c0 1406 ffd5 3b3d 8c43 80bd
00000040: 0935 333c 80fd 4a3c 2723 4806 55df c23c
00000050: 7869 223d 8148 813d fa0d b936 8560 7cbb
00000060: 745a ad86 80da 433b eefa 3ebd 381f 80bd
00000070: 875b 46bd b15d a784 02c6 8a3d c58b febd
00000080: e89d 2a3c 6d32 393b 34ef 7d85 ab20 19bc
00000090: 0a76 4e3d 183f 653d e859 3bbd d27e 953a
000000a0: 3ae2 8606 f662 d8bc af5b 75bd 8f86 bfbc
000000b0: 303f 5cbd 4f45 da85 f819 d2bc d75a 6f3d
000000c0: 292c 4c3d a1f2 8c3d d784 7205 37d9 de3c
000000d0: 305a cabc 4b97 763d d779 13bd 28a2 5d3b
000000e0: 4673 0885 6d6f 1fbb 0f41 513b 600f d2bc
000000f0: 667b c2bd 6eb4 6084 4158 403c 592e da3b
00000100: 0d00 a1bd a34e 783c eb90 4804 1ee9 10bd
00000110: fad6 29be 7f4d 56bd 6679 bcbb ab0f 743a
00000120: d041 6b06 7a51 023c b3b9 99bd 245a 033d
00000130: 2b78 b9bd 6f0a bb05 ad65 333c 5f66 1a3c
00000140: 9ad9 403c ae71 67b9 1f60 ed84 0e4f b13a
00000150: 0f94 01b9 9953 8dba bea0 163e 2b92 503e
00000160: 6cd8 4386 8342 a4bb 2622 e838 9293 133a
00000170: 24e9 3f3b 2e13 dc85 8ec5 02bb 19d4 f5ba
00000180: 904c 433c 8571 203b b847 7406 e6e5 31bc
00000190: 5908 193d a1b2 813d 098d 12bd 8a6d b53c
000001a0: 97d9 6407 6ed0 d5bc 2948 7bbd 9144 ffbc
000001b0: 4036 76bd 87dd 8e06 e9aa dbbc 021d 4d3d
000001c0: 713c 2e3d 7dbb 0cbe 70bc 2305 fb3e d43c
000001d0: c84a aebd 8500 ecbd f004 07bd d752 413d
000001e0: 6a6d 5386 1092 b43b 9eda e03b 86ef ecbb
000001f0: 9a03 f93c ca8d 0184 db55 3a3c 6f1d 1cbb
00000200: 0951 62bc 9e14 a2ba 08e7 5287 6f70 9cbc
00000210: ae93 7e3a f877 7a3c aeed 393a 693d 293c
00000220: 8afc 9187 7d7f 7fbc 2a28 21bc 5843 a4bc
00000230: da68 5abc 46bf 4486 222e 563e 6d11 81bc
00000240: 19e9 cabd ffa8 b53b e434 b683 94e9 bbb9
00000250: 0f9b 953d ec73 a73c 9fe6 703c 55ae 353d
00000260: 166f 5607 7d0a 293c ef7c 38bc 0c2b ca3c
00000270: 29fb ee3c 33c9 2385 c942 5dbc d989 61bc
00000280: e52d 7c3c 1919 693b 5724 f104 bec1 8cbc
00000290: 906e 193d 6b07 403d 6622 ddbc 69d5 77bc
000002a0: 2b02 8b86 1332 a7bc e350 43bd 3b99 d3bb
000002b0: c590 16bd 22cc 2c85 c661 343d 513f 96bd
000002c0: 2cd0 a53b efce 39bc 5ff0 df05 1c64 5a3c
000002d0: 1a73 fdbb 31cb 3a3c 1749 e9bb 0ec5 903b
000002e0: e038 3907 1031 98b8 52f8 62bc 50e9 e9bc
000002f0: ebb4 58bb 2df6 de84 372a ff3c f161 d4bd
00000300: faf0 ef3c b9ee 1f3a f4c7 c605 3e9c bcbc
00000310: d3e4 6d3d b82a a13d a0da 01bc 695f 2a3c
00000320: e86c 9786 f369 d4bb ded7 94bd 83f9 26bd
00000330: ab3d 99bd 0aa8 0202 4bb2 453c 4e24 91bc
00000340: 4d4d ac3b 295c 973b 2ae8 1e86 c8fb 16bd
00000350: 88c8 103d 9c99 543d b37b 64ba 184a 493b
00000360: 82de 2807 6f98 1abe 1649 0bbd 5886 163d
00000370: f91d 03bc d650 9b84 0e21 003e ca39 aabc
00000380: 586f eebb 7d50 dab9 d1b6 7e86 36cf 82bc
00000390: 7305 13bb 1f3e ceba 28df 38bc 57fa 213c
000003a0: 8e83 f607 fe98 48be af9b 46ba 21d8 b0bc
000003b0: db3d 22bc c24c 1986 df7b 8cbc f66b 893c
000003c0: 7983 e5bc 4ea0 ac3d cce2 ff84 251f 043c
000003d0: 82db d9bc d380 2fbd 5a32 0bbc d215 b4ba
000003e0: f094 e984 b649 a8bc cd5c d83c c967 f33d
000003f0: edbc 8a3d f38d 0186 a8a7 30bc 3333 973a
0.012539519 0.0009936626 2.3649138e-35 -0.020264503 0.037904594 0.057675548 -0.007097026 -0.0035874331
1.7694063e-34 -0.017364906 -0.047099084 -0.016043797 -0.04585404 2.7976768e-35 0.04585838 -0.062628835
0.010937938 0.012389541 3.7641645e-35 0.023788134 0.039651364 0.06312657 5.5150567e-06 -0.0038509679
-6.5208276e-35 0.0029884875 -0.046626024 -0.062559545 -0.04842713 -3.9347553e-36 0.06776048 -0.12429003
0.010413624 0.0028258816 -1.19399375e-35 -0.009346168 0.05040554 0.055968374 -0.04574004 0.0011405593
5.073761e-35 -0.026414376 -0.05990189 -0.023379592 -0.053771198 -2.0526081e-35 -0.025647148 0.05843624
0.049846802 0.06882215 1.1403184e-35 0.027203185 -0.024701208 0.060202878 -0.036004867 0.0033818576
-6.415862e-36 -0.002432789 0.0031929647 -0.025642097 -0.09496193 -2.6413923e-36 0.011739791 0.006658357
-0.07861338 0.015155467 2.357643e-36 -0.035378568 -0.16585913 -0.05232 -0.0057517765 0.0009310196
4.424694e-35 0.007953996 -0.075061224 0.032068387 -0.09056123 1.7589228e-35 0.010949534 0.009423821
0.01177063 -0.00022072226 -5.5806706e-36 0.0013527588 -0.00012357555 -0.001078236 0.14709756 0.20368259
-3.6834425e-35 -0.0050128116 0.00011068983 0.00056295947 0.002928325 -2.0695746e-35 -0.0019954178 -0.0018755227
0.011920109 0.0024481725 4.594399e-35 -0.010858035 0.037361477 0.06332899 -0.035779033 0.022146959
1.7216757e-34 -0.026100364 -0.061348114 -0.031160625 -0.06011033 5.373997e-35 -0.026814895 0.050076492
0.04253811 -0.13743396 7.698834e-36 0.025908938 -0.08510357 -0.115235366 -0.032963693 0.047198143
-3.9765074e-35 0.005510576 0.0068619987 -0.007230702 0.030397225 -1.5228983e-36 0.011373009 -0.0023821255
-0.013813266 -0.0012365764 -1.5866538e-34 -0.019096581 0.0009711337 0.015287392 0.0007092607 0.010329583
-2.1965604e-34 -0.01559436 -0.009836236 -0.020051643 -0.013330663 -3.7004028e-35 0.20916036 -0.01575538
-0.09907741 0.0055438275 -1.0709142e-36 -0.0003584145 0.07304966 0.020441018 0.014703422 0.04435571
1.6132216e-34 0.010317442 -0.011260255 0.02467873 0.029172497 -7.7011776e-36 -0.013504692 -0.013765776
0.0153918015 0.0035567938 5.66922e-36 -0.017182227 0.037458956 0.046882074 -0.026993942 -0.015126565
-5.2289174e-35 -0.02040962 -0.04768456 -0.0064574755 -0.036759157 -8.1248944e-36 0.044038557 -0.073362954
0.0050602164 -0.011340841 2.1059118e-35 0.013329532 -0.0077346684 0.011400984 -0.0071193087 0.004418022
1.3934567e-34 -7.2570634e-05 -0.0138531495 -0.028553635 -0.003306682 -5.2418026e-36 0.03114806 -0.10370243
0.029289711 0.0006100941 1.8693282e-35 -0.02302372 0.058079552 0.07869476 -0.007925659 0.010398724
-5.695991e-35 -0.0064823567 -0.07267736 -0.040765297 -0.07482465 9.599116e-38 0.012066434 -0.017717507
0.0052582384 0.0046191406 -2.9887064e-35 -0.03686121 0.03534749 0.051904306 -0.00087159424 0.003071433
1.2704304e-34 -0.15097211 -0.034005247 0.036749214 -0.0080027515 -3.651456e-36 0.1251261 -0.02077951
-0.007276457 -0.0004164017 -4.7906403e-35 -0.015967946 -0.0022433668 -0.0015735066 -0.011283673 0.009886346
3.7091287e-34 -0.19589612 -0.0007576299 -0.021587433 -0.009902443 -2.8832494e-35 -0.01714891 0.016775113
-0.028016793 0.08429013 -6.0158492e-36 0.008064066 -0.026593927 -0.042847466 -0.0084958915 -0.0013739413
-5.4914814e-36 -0.02054296 0.026411438 0.1188503 0.06774316 -2.436649e-35 -0.01078216 0.0011535644

conv2.4.weight f4 [32]
00000000: db6f fa3c 2524 b33d 745b bd3c 9ef3 793d
00000010: 07ee fa3d 3ae4 053d 9f14 293d 72fb 853d
00000020: 926b 853d 4a5c 203d 835c ed3c 027e 733d
00000030: 002c 3f3d 0050 203d 468a 993d e3d8 953d
00000040: 3469 d53d 37b0 463d ea6e 983d c19c 713d
00000050: 069d 4d3d 93f3 a23d da84 6e3d 64f8 e93c
00000060: a985 0b3d 85e3 583d 6bfc d53c 2a9e 533d
00000070: 9946 993d 4f8e a33d b73f 8f3d 1de4 603d
0.030570915 0.087471284 0.023114897 0.061023347 0.12252431 0.032688357 0.04127943 0.065421
0.06514658 0.039150514 0.028974777 0.059446342 0.04667282 0.039138794 0.07497077 0.073167585
0.104204565 0.048507895 0.0744303 0.058987383 0.050198577 0.07956614 0.058232166 0.028560825
0.034063015 0.052951355 0.026121339 0.05166451 0.074841686 0.079861276 0.069945745 0.054905046

conv2.4.bias f4 [32]
00000000: 457b 9a3d 815b 21bc b292 a73d d1d6 f93b
00000010: 297e cabd 7337 873d bdc7 723d 4d65 243d
00000020: 422b 9b3a c52d 4c3d f0bd a43d d3f4 d13c
00000030: fad6 883d aee9 993d 67df c5ba af74 8a3c
00000040: af82 b4bd 5f0e 193d 5842 c13c d9d9 953a
00000050: 31e7 7f3d 8157 fc3c 967b 7a3d 4564 993d
00000060: d00a 733d b1f6 b23b 3aee a03d 55f7 833d
00000070: 3a65 c13c f233 1d3a 8233 953c d9bb 2f3d
0.07543043 -0.009848476 0.08182277 0.007624485 -0.098873444 0.06602373 0.059272517 0.04013567
0.0011838453 0.049848337 0.0804404 0.025629437 0.066816285 0.07515274 -0.0015096486 0.016901342
-0.088139884 0.03736722 0.023591205 0.0011432722 0.06247634 0.030803444 0.061153017 0.07489828
0.059336483 0.005461537 0.07857938 0.06443659 0.023607839 0.0005996815 0.018213037 0.042903755

conv2.4.running_mean f4 [32]
00000000: 0a22 f039 e7d3 f53a eafc 2cbb 04ec 853c
00000010: dade fcbc 7756 b33c 79e5 ffba d07e a3bc
00000020: dd0f 003d 18a5 efba 954b 36bb 3f67 01bc
00000030: 5b0d 813b 63db adbb c5a7 57bd 32e6 e13b
00000040: 6b32 39bc 9ded baba cc8d 91bb c480 f43c
00000050: 8eb4 a4b9 1e53 c2bc e944 0e3d 811a b33b
00000060: 0f15 213c 6fff 8f3c 0c62 fd3b 3f73 c13b
00000070: 3c6c 2f3c 44f0 753c cd4c bebc abb7 dc3a
0.00045801728 0.0018755168 -0.0026395866 0.016347893 -0.030867983 0.021891816 -0.0019523344 -0.01995793
0.03126513 -0.0018283455 -0.0027816046 -0.007898151 0.0039383597 -0.005305694 -0.052650232 0.0068938965
-0.0113035245 -0.0014261488 -0.0044419523 0.029846556 -0.0003141504 -0.023721274 0.034733687 0.005465806
0.009831681 0.017577855 0.0077326354 0.005903631 0.010706957 0.015010897 -0.02322998 0.0016839405

conv2.4.running_var f4 [32]
00000000: 6c79 f538 db33 c339 986e 0539 9843 2b39
00000010: 9d9b 2d39 3473 e638 0ef2 0339 16cc 1a39
00000020: 1193 7639 af9e a238 578f ff38 48fc 3339
00000030: b51b 1839 e2d9 8439 27fa 9539 fac1 9439
00000040: 8b1a 043a 65f0 2b39 d4b1 073a ca66 7f39
00000050: 2408 1039 d49f 093a 4752 4939 4496 e538
00000060: e66f a638 0981 1339 4785 0639 b02a 2739
00000070: 39bd 4639 68a3 873a 95c4 3339 2b9c 8039
0.00011705127 0.00037231934 0.00012725068 0.00016333011 0.00016556536 0.00010988713 0.00012583306 0.00014762612
0.00023515175 7.754319e-05 0.00012186047 0.00017164752 0.00014506171 0.00025339337 0.00028605873 0.00028373284
0.00050393556 0.00016397385 0.000517634 0.00024356987 0.00013735943 0.00052499515 0.00019199504 0.0001094756
7.9363395e-05 0.00014067082 0.00012828886 0.00015942263 0.00018953242 0.0010348381 0.00017144003 0.00024530417

conv3.0.weight f4 [32, 1, 3, 3]
00000000: 4407 57bd c616 91bc ebd6 263d 371c 12bd
00000010: e698 f83d 5892 da3b 7b9a 3b3d 6d76 753a
00000020: 4d04 84bd 4210 153c ddf2 9cbc 5baf 23bc
00000030: 355e 8fbc c449 3dbd def0 19bd 9fa3 b3bc
00000040: 3210 17bd 79f6 08bd a564 a2bc 56e0 2ebd
00000050: ce33 d13c 9194 a83d 23b3 55bd aa03 d9bd
00000060: dc55 51bc 5c41 d03d bcce 4dbc f921 09bc
00000070: 7a6b 90bc 66cf 4fbb df24 b4bc 3908 09bd
00000080: 8fc8 b2bc dfff 06bd b584 cdbc ad54 04bd
00000090: 3f69 083d 0fc1 063d fa95 043d d780 4a3d
000000a0: 3d56 6e3d 0129 2d3d dc74 173d 2dc0 4a3d
000000b0: fafd d73c e85b 84bd c1ff d7bd 0412 99bd
000000c0: 99d2 46bd a80e 31bd b8e8 7cbc 062d ed3d
000000d0: af35 2d3e bd17 b53d 9693 263d 5e6e 07bd
000000e0: f86b 2ebd cb9b 403c 458c 023e c315 b23b
000000f0: 5e0c a7bd eed5 87bd 841c 123d 24af 8bbc
00000100: f4cc f9bc c3f4 c0bc 205f f6bc 9ed2 c0bc
00000110: 1179 ccbc e486 03bd 88c4 5abd 3303 3fbc
00000120: cfc9 b1bc 4393 57bd 71bd eebc 840f e6bc
00000130: 1504 8ebd 0e11 6bbd ac6f 5ebb 5d0d 13bd
00000140: 7eef 2ebd 5c91 7f3d 4818 843c 3f05 70bd
00000150: 0e96 a43d d884 403c 94a0 9fbd ff8b 133d
00000160: 49fd 6cbb 9654 57bd 9eba 253d 375c 3bbd
00000170: e3ad 12bd d664 95bd 40e0 9cbd dfaa b33d
00000180: 99ad 913c 2bc8 ba3d fecf 40bb 129d 0e3d
00000190: daa4 303d 58f7 43bd 1980 603d a9c3 543c
000001a0: c65d aabd 30d1 233d 4266 41bc c1c8 3cbd
000001b0: 6e3f 2abc fd2a b4bc 6e34 9c3c c949 9b3d
000001c0: c9a4 c83d 54d4 2f3d 109e f6bc ff89 d5bd
000001d0: c85e 5fbd 5d79 c43c c627 213d 3bae c23c
000001e0: 56fb fc3c 1d66 843d 1d73 283d 302d b93c
000001f0: 04e5 223d f40f df3c d602 5bba 5f1c 18bd
00000200: cd99 12bd ff86 f4bc 8eeb 87bd c27a 3fbd
00000210: 32ce 07bd e4df 41bd 4217 b4bc 9ff3 eabc
00000220: 69fc 1abd 550b 61bc 7fca e4bc 2502 2abd
00000230: 882c 29bc e7cc 9abc db5d 5cbc 987c 0cbc
00000240: 54a1 b43c d02f 373d cb03 b03c c888 2f3d
00000250: 0904 7b3d e959 ff3c 4707 ff3c a523 403d
00000260: d5cd ab3c a21f 463d 3010 11bd 7aee 53bd
00000270: 3ee3 183d 5a02 883d 7515 90bd de18 b9bb
00000280: 5085 883d 9a05 15bb abbf 103d 6259 db3c
00000290: efbe ee3c d187 e43c 28ae a13d 9923 513d
000002a0: 66de a53c 806e 523d a98e 873c 590c 953c
000002b0: adb5 523d d196 263d 884e 0b3d e2aa 8d3d
000002c0: 876b 303d 2312 d63c 30db 0b3d 7933 803c
000002d0: 96e5 433d 5925 d73d ac30 823c 951d c3bd
000002e0: b0f3 bebd 75f5 dc3c 5d58 143d 22ac 1ebc
000002f0: 9cdc fbbc da0a b9bc 666a 14bd 330b 9ebc
00000300: cc61 edbc 8e91 85bd e0e2 29bd 3bb6 08bc
00000310: 9d06 f1bc ba8f c1bc f689 5ebc 9541 4cbc
00000320: 5aec 50bb bcfc 143d 4e6a 523d 4a90 0a3d
00000330: d3fa 073d b4c2 943d 758e 273d 5ccb 50bc
00000340: c509 1bbd ee81 e2bc af7f edbc bb74 6ebd
00000350: 9993 ffbc a095 7abc a25f cabc 0e22 2dbc
00000360: d566 18bd 2b31 88bd 427d dfbb 95a7 9cbc
00000370: 3e98 a0bc 97a7 c2bc abd4 7fbc 9a6b ebbb
00000380: 7186 37ba 7b17 173d e101 4f3d ed5e 873c
00000390: 6aa7 0c3d c67b 473d d321 9c3c 6cca 473c
000003a0: 3616 063c f824 123c a68a 8dbd bfbd a3bd
000003b0: a179 39ba 1620 b5bc c289 0ebd 2536 ba3c
000003c0: 32a7 753c 1670 dd3c c5f6 683c 1a21 263d
000003d0: 7ae3 e63d c4be e83c f788 4c3c 9135 cabd
000003e0: 7196 b9bd 9e2c 5cbc d0ab 3ebc fbfb c83c
000003f0: 55b4 17bd aa0c 5abd 4a47 debc af21 2cbd
-0.052497163 -0.017711055 0.040732305 -0.03567144 0.12138538 0.0066702776 0.04580162 0.0009363655
-0.06446133 0.009098114 -0.019158775 -0.0099905385 -0.017500976 -0.046212927 -0.037583224 -0.021928607
-0.03688068 -0.03343818 -0.019823382 -0.042694412 0.025537398 0.08231462 -0.05217279 -0.10596402
-0.012776818 0.10168716 -0.012561496 -0.008369916 -0.017629374 -0.0031709312 -0.021990238 -0.033455107
-0.02182415 -0.03295886 -0.025087694 -0.032307316 0.033303495 0.03289896 0.03236959 0.049439277
0.058187712 0.042275432 0.03697668 0.04949968 0.026366223 -0.06462842 -0.10546828 -0.07474139
-0.048540685 -0.043226868 -0.015436344 0.11580853 0.1691501 0.08842418 0.040668093 -0.03306424
-0.042583436 0.011755894 0.12748821 0.005434723 -0.08156656 -0.06632601 0.035671726 -0.017051287
-0.030493237 -0.023554211 -0.030074656 -0.02353793 -0.024960073 -0.032111064 -0.053410083 -0.011658478
-0.021702675 -0.052630674 -0.029143067 -0.02808357 -0.06934372 -0.05738931 -0.0033941073 -0.035901416
-0.042708866 0.062394485 0.01612486 -0.058598753 0.08036433 0.011750422 -0.077943 0.036022183
-0.0036161712 -0.0525709 0.040461175 -0.04574224 -0.035810363 -0.072946236 -0.0765996 0.087728254
0.017782973 0.0912021 -0.0029420848 0.034817763 0.043125965 -0.047843307 0.054809663 0.012986102
-0.08318667 0.03999442 -0.011804165 -0.04608989 -0.010391099 -0.021993155 0.01906797 0.07582433
0.09797055 0.0429271 -0.030104667 -0.10426711 -0.05453375 0.023983652 0.03934457 0.02376472
0.030881565 0.06464789 0.041125406 0.022604555 0.039769188 0.027229287 -0.00083546096 -0.03713643
-0.035791207 -0.029849527 -0.06636725 -0.04674793 -0.033155628 -0.04733266 -0.021983746 -0.02868062
-0.037838373 -0.013735612 -0.027928589 -0.04150595 -0.0103255585 -0.018896533 -0.013450111 -0.008574627
0.022049583 0.044723332 0.021486184 0.042855054 0.061283145 0.031170802 0.0311314 0.046908993
0.020972172 0.04837001 -0.03541583 -0.0517411 0.03732609 0.066410735 -0.070353426 -0.0056487164
0.06666052 -0.0022738934 0.03533904 0.02677602 0.029143779 0.027896794 0.07894546 0.05105934
0.02024765 0.051374912 0.016547518 0.018194364 0.05144279 0.040671173 0.03401044 0.06917359
0.043071296 0.026131695 0.03414458 0.015649544 0.047826372 0.105051704 0.01589235 -0.09527127
-0.093238235 0.026972512 0.036217082 -0.009684594 -0.030744843 -0.022588182 -0.036234282 -0.01929245
-0.028977297 -0.06521903 -0.04147613 -0.008344228 -0.029422099 -0.023628104 -0.013582697 -0.012466808
-0.0031879158 0.03637384 0.05137091 0.03382901 0.03319819 0.07263699 0.040907342 -0.012743797
-0.037851114 -0.027649846 -0.028991548 -0.05821679 -0.03119831 -0.015294462 -0.024703804 -0.010567201
-0.037207443 -0.06650003 -0.006820352 -0.019122878 -0.019603845 -0.023761554 -0.015614669 -0.007184458
-0.00070009293 0.036887627 0.0505389 0.016524756 0.034339346 0.048702024 0.019059097 0.012194257
0.008184006 0.008919947 -0.06911211 -0.079951756 -0.0007075314 -0.022110026 -0.034799345 0.022730896
0.014993476 0.027030986 0.014218991 0.04055891 0.112738565 0.028411277 0.012483827 -0.09873498
-0.090618975 -0.013438372 -0.011637643 0.024534216 -0.037037212 -0.053234734 -0.027133603 -0.04202431

conv3.1.weight f4 [32]
00000000: 2adc c43d b6e7 cc3d 5d59 d33d b0ae 4c3d
00000010: 120d 183e a7cf 783d 628c b33d a02b 643d
00000020: 5da9 ac3d e7f0 9d3d 3536 bf3d 9196 ac3d
00000030: 6149 af3d 4c3f a33d c8c4 923d 10bf f63d
00000040: 3c2f 963d c18d a23d 0490 8c3d 2bde 863d
00000050: 8b8b b23d 73a3 833d ae61 943d b056 c23d
00000060: e410 933d b4a2 3d3d 95a2 963d 197c b23d
00000070: df84 c03d 34a5 ba3d e977 333d 87d0 633d
0.096123055 0.10005133 0.10319779 0.049971282 0.14848736 0.060744908 0.0876701 0.055705667
0.08430741 0.07711964 0.09336511 0.08427156 0.08558918 0.07971057 0.07166439 0.12048161
0.07333228 0.07937194 0.06863406 0.06585344 0.08718022 0.0642766 0.072451934 0.094891906
0.07180956 0.046297744 0.07355229 0.08715076 0.09400343 0.09113541 0.043815527 0.05561879

conv3.1.bias f4 [32]
00000000: 6f47 2abc f343 c93c d0ee 853b 14bb 473d
00000010: 4533 c2bd 0e91 f43d 8cce 8dbb d720 a03d
00000020: 5190 ed3d 59fd 0cbc 6ddf d13b 7a30 22bc
00000030: 0845 11bc 3469 b43b f06a ae3d 4daa 613c
00000040: 10a0 9a3c dbcf 94bb ef4f 4a3d 9df5 123d
00000050: 8a3c f2bb c8a5 1e3e e519 c33d 3e04 aebc
00000060: 25dd b13c 6fcc ca3c 4cf8 ab3c 7b56 0abc
00000070: 9a64 3f3d 2af1 953d 8150 153e 0181 043e
-0.010393008 0.024568534 0.0040873066 0.048762396 -0.09482435 0.119417295 -0.004327601 0.07818764
0.11599792 -0.008605325 0.0064048083 -0.009899253 -0.008866556 0.0055057053 0.085164905 0.013773513
0.018875152 -0.00454138 0.049392637 0.035878766 -0.0073924707 0.15492928 0.09526423 -0.021242257
0.021711895 0.024755685 0.02099242 -0.00844347 0.0467268 0.07321389 0.14581491 0.12939836

conv3.1.running_mean f4 [32]
00000000: 5040 5e3b 5493 80bb 254b 41bb 00fb 9ebb
00000010: ac40 313b ecfe e93a 0353 37b9 38fb 45bc
00000020: 44c3 c7bb 4ce6 003a c4b0 ee39 620d e4b9
00000030: 1423 3b3a 9229 c13c 25e7 bfbb 7382 aabb
00000040: 32c5 9d3a 37b5 043b 762a 363c 5aab af3b
00000050: 0a44 2839 4dcd 4dbc 9af3 713c adaf 95bc
00000060: f0ec 3dbc 2579 843b 2413 1dbc 14d3 1d39
00000070: 075e dabb 8863 233c cc3b dfbb 8e94 3cbc
0.0033912845 -0.003923813 -0.0029494253 -0.004851699 0.0027046604 0.0017852462 -0.00017483164 -0.012083821
-0.0060962755 0.00049171294 0.00045526598 -0.0004349752 0.0007138711 0.023579393 -0.005856412 -0.005203539
0.0012036918 0.0020249614 0.011118522 0.005361003 0.00016047075 -0.012561155 0.014767552 -0.018272245
-0.011592135 0.004042762 -0.009587083 0.0001505132 -0.006664041 0.009972461 -0.0068125483 -0.011510028

conv3.1.running_var f4 [32]
00000000: fbf7 7537 445d 1538 cfa4 6137 7beb 0538
00000010: 3eb7 0038 c5dd 7137 0238 c337 6df6 8438
00000020: 7df6 a138 e384 aa37 9d4f 5d37 d291 b037
00000030: 3ba2 1238 a493 af37 9b43 5838 af3a a738
00000040: 50c4 7b37 7a65 ea37 96f5 7939 5f65 8c38
00000050: 2602 0338 cac7 3e38 c7a2 0639 d97b d837
00000060: 3b73 c437 f6bf 4f38 065e 6237 9bb3 1238
00000070: 33df f138 b089 1e39 cae0 0338 bf8d 9738
1.4660875e-05 3.561123e-05 1.3449418e-05 3.192898e-05 3.0688236e-05 1.4416354e-05 2.3271892e-05 6.340151e-05
7.72299e-05 2.032746e-05 1.3191163e-05 2.1048738e-05 3.49602e-05 2.0930376e-05 5.1561376e-05 7.974111e-05
1.5006473e-05 2.7942227e-05 0.00023837978 6.694602e-05 3.1234835e-05 4.5485598e-05 0.00012839875 2.5806878e-05
2.341868e-05 4.9531423e-05 1.3492541e-05 3.4976383e-05 0.000115333496 0.00015119347 3.1442185e-05 7.226643e-05

conv3.3.weight f4 [32, 32, 1, 1]
00000000: dedf fdbb f512 2fbc 4de9 2f3d fdef 9cbc
00000010: cdae cebd 94de d6bc 5042 12bb 379f 58bd
00000020: 1aa5 483d a872 2b3d 57c3 913c 002f 553d
00000030: a6b7 cb3c dd60 ca3d f960 373d 0e32 a7bd
00000040: 0620 75bb 45e9 443d f609 bf3d ecc2 cdbc
00000050: be64 223c a0ff df3b e630 423c ee20 f73c
00000060: a6cf 893c 2097 68bd 9bfb 66bd 1049 943c
00000070: 9b32 0e3d d9cb 0cbd df90 ba3d 2c0c c83c
00000080: 6c9c 383d be11 2fbd e8aa c23c 1f2c 02bd
00000090: ff2f 1dbd ea49 19bd 5fdf 423d e116 dfba
000000a0: d61d 62bd 2c64 dabb 426e d83c 6000 a3bb
000000b0: 39e1 613d 8cf4 06bd 49bc 97bd 1100 16bd
000000c0: a6e3 b1bc 7cad 93bb 439b 9cbd a3d0 c43c
000000d0: 4966 303d 1965 d33c faa2 e13c 1c1e a13c
000000e0: a5e4 84bb 4487 c13d a955 db3c 2eed 4a3d
000000f0: b336 a8bd c636 b53d c973 5d3d 29a1 61bd
00000100: 1316 34bb 6ae6 3bbb 1b9a 39bb c084 7b3c
00000110: a3de a5bd 687b d1bd 91fc 2dbc 77c3 92bd
00000120: c960 e039 c23b 80bb 152e 62ba 9a3a 593c
00000130: 3a7c 2ebc e384 58b9 83a6 743c 9d5d 14bd
00000140: c6c3 39bd ceee 7b3b 3cc7 a93a de6f da3b
00000150: dbdb 15bc f21e 9cbb c955 24bb 7c7e 63bd
00000160: a643 d8bb 8ee9 90bd 950c 563a 5457 8dbb
00000170: 2246 31bc fd97 343c e845 ffbc 46a3 183d
00000180: 0e7c 6a3d 9e59 a73b 63a2 e8bc 8e31 53bc
00000190: 4472 9bbc 3466 b73b 87d2 18bc ab3d 713c
000001a0: d16e 90bd 8f78 583c 61ca 593d 49d0 eb3c
000001b0: e48d 633d bc08 50bc 5896 bcbc b1ea b0bc
000001c0: 3f19 0eba cd57 8b39 57cb a03d fc28 ba3c
000001d0: 4d23 d4bb e5f0 eb3c 07e4 9dbd 12e4 6f3d
000001e0: 9a94 213d 5c72 9f3c 04f2 d939 8ab0 7c3d
000001f0: b964 45bd 1391 973c 10b4 aebc 6489 8dbd
00000200: a288 e1bc c3b7 093d a8e3 7cbc ba39 dd3c
00000210: d0f5 7dbd b053 97bd b651 cabc 76b5 bdbc
00000220: 209d 4c3c d597 933b 97b1 54bc 889c d7bc
00000230: c83f 09bc 89ef cdbc 9844 8d3c 7aff dc3c
00000240: 01cd 973d e9ce 13bd 886f 583b ab10 aebd
00000250: 9d8b 86bc d36e 7dbc 4062 b63d a113 0cbd
00000260: 2b50 3abc 6fc1 a53d cd20 53bd c371 00bc
00000270: d866 9ebc afba 7bbc 01c6 893d 9300 6abc
00000280: 9259 b53c 93f1 74bd c106 833c 604a 9f3c
00000290: 5ef3 84bd d43e aebd 2180 a73c 3dd2 003c
000002a0: 0cf8 a8bc a677 1d3d bb73 2a3b 27bf a63d
000002b0: d0e0 fe3b e7b4 733b 2c7c d7bc 0b04 933c
000002c0: 6a8b 93bd 9b98 4d3d bf7c 01bd ffde 923d
000002d0: b5ed 1e3c 8807 c53c ed97 d1bc a5c2 87bc
000002e0: c385 183d ab48 203c 1d99 773d 7fce 1bbc
000002f0: e66a 74ba 63e3 14bc 5cdb 013e 2afb db3c
00000300: 26e8 2abc cfef 9e3c dcd4 4f3d d2f5 b53b
00000310: c1e5 08bd 5799 3e3c da59 4b3d ce96 1538
00000320: 4a0e 43bd fb7d b23c 188d bcbc d0c0 783c
00000330: d5b3 f23c 9262 a23b 7138 97bd 3da0 eabc
00000340: 5c2b 5e3c 7e90 6e3d e0f0 1a3d 358d e93c
00000350: a1d4 283d 0178 bfbc 87c0 93bd e22e a83d
00000360: ea0b 093d 58f4 b13c 277a 803c 2aaf 433c
00000370: 3715 98bd 654f 673c 6899 8abc 3fc1 76bd
00000380: 52a3 fabc 75b8 58bc 387a 1dbd 4f99 51bd
00000390: 11dd 6ebd 5ae0 343c 2749 6dbc fa9e 1cbd
000003a0: 1a61 be3d 0c92 93bd 4de9 eabc 1d72 c0bd
000003b0: dd66 c73d 8c40 73bd b124 cd3d 932d 2fbd
000003c0: b8d0 aebc b4a9 f4bc 882f a53d 03cc f6bd
000003d0: f2b8 3d3d 3988 043d 17e4 8dbc bbd4 333c
000003e0: 5b7b 75ba b8db 383d ba3e 903b ab87 8d3d
000003f0: 2749 77bd 6e92 ec3d 7c98 c6bb 9f35 bebd
-0.0077476343 -0.010685672 0.042947102 -0.019157404 -0.10091934 -0.02622918 -0.0022317357 -0.052886214
0.048985578 0.04185739 0.01779334 0.052046776 0.024867844 0.098817565 0.044770215 -0.08163844
-0.003740312 0.048074026 0.09328072 -0.02511736 0.009911714 0.006835893 0.011852479 0.03016707
0.016822647 -0.05678475 -0.056392293 0.018101245 0.03471623 -0.03437409 0.09109663 0.024419867
0.04507105 -0.04274153 0.023763135 -0.03178036 -0.03837585 -0.037424006 0.047576305 -0.0017020368
-0.055204235 -0.0066647734 0.026419763 -0.00497441 0.05514643 -0.03294806 -0.074089594 -0.036621157
-0.021714997 -0.004506765 -0.07646801 0.024025267 0.043066297 0.025805043 0.027543534 0.019667678
-0.004055577 0.09449628 0.026774244 0.0495426 -0.08213558 0.08848338 0.0540655 -0.055085335
-0.0027478978 -0.0028671273 -0.0028320614 0.015351474 -0.08099105 -0.10228616 -0.010619299 -0.07166188
0.0004279672 -0.0039133737 -0.00086280826 0.013258601 -0.010649735 -0.0002064887 0.014932278 -0.03622209
-0.04535272 0.00384419 0.0012953053 0.0066661676 -0.009146656 -0.004764431 -0.0025075546 -0.055540547
-0.006599861 -0.07075797 0.0008165327 -0.004313389 -0.010819944 0.011022565 -0.031161264 0.037265085
0.057247214 0.0051071187 -0.028397745 -0.012890233 -0.018975385 0.0055969004 -0.009327537 0.014724175
-0.070523866 0.013212337 0.05317152 0.028785842 0.05555524 -0.012697395 -0.023020908 -0.021596285
-0.0005420632 0.00026577563 0.07851284 0.022724621 -0.0064739347 0.02880139 -0.077095084 0.058567114
0.039448358 0.01946371 0.0004156978 0.0616918 -0.04819176 0.018501794 -0.021326095 -0.06910971
-0.027530972 0.033622514 -0.015435137 0.027005065 -0.062002003 -0.07389009 -0.024697166 -0.023157816
0.012488633 0.004504184 -0.012981794 -0.026319757 -0.008377023 -0.025138633 0.017244622 0.02697729
0.07412148 -0.036085997 0.0033025462 -0.08499273 -0.016423995 -0.015468317 0.089054585 -0.034198407
-0.011371653 0.08093535 -0.051544953 -0.007839623 -0.01933615 -0.015364333 0.067272194 -0.0142823635
0.022137437 -0.059800696 0.015994431 0.019444644 -0.06491731 -0.08508077 0.020446839 0.007862625
-0.02062609 0.038444184 0.0026008922 0.08141928 0.0077782646 0.0037186684 -0.026304327 0.017946264
-0.072043255 0.050194364 -0.031613108 0.071714394 0.009700228 0.024051443 -0.02558514 -0.016572306
0.03723694 0.00978295 0.060448755 -0.009509682 -0.00093237904 -0.009087416 0.12681335 0.026853163
-0.010431325 0.019401459 0.050740108 0.0055529857 -0.033422235 0.011633239 0.049646236 3.5664816e-05
-0.04762105 0.021788588 -0.023016497 0.015182689 0.029626766 0.004955598 -0.07383812 -0.02864086
0.013560142 0.058243267 0.037827373 0.028509716 0.041218404 -0.023372652 -0.07214456 0.08212067
0.033458628 0.021722957 0.015683247 0.011943618 -0.074259214 0.01411805 -0.016918853 -0.060242888
-0.030595455 -0.013227572 -0.038446635 -0.051171597 -0.058316294 0.011039818 -0.014482773 -0.03823755
0.092958644 -0.072055906 -0.0286757 -0.093967654 0.097364165 -0.05938773 0.10016764 -0.042768072
-0.02133976 -0.029866077 0.080657065 -0.12050631 0.046318956 0.032356475 -0.017320676 0.010976012
-0.00093643897 0.045131415 0.004402009 0.06910642 -0.060372498 0.11551367 -0.006060658 -0.09287571

conv3.4.weight f4 [32]
00000000: 634c 313d a93d 293d 7f46 7a3d fd12 363d
00000010: e4ca 823d ab2f 523d 3d46 3c3d 1176 8a3d
00000020: 53a7 053d 3339 c13c 6792 543d 9e91 d83c
00000030: 4c05 183d 4ad3 433d f214 5b3d a9e2 4f3d
00000040: 8b72 463d c0f2 823d 1e10 133d 4a5c 6d3d
00000050: 70b1 163d 7099 583d eec6 943d 4d54 423d
00000060: d513 453d e4bb f73c fe2e b53d 18d4 273d
00000070: 0b0b 313d 229d 893d 8a9d f73c 7e36 f03c
0.04328574 0.04131857 0.061102387 0.044451702 0.063863546 0.05131499 0.045965422 0.06760801
0.032630276 0.023586845 0.051897433 0.026436623 0.037114426 0.047808923 0.053486772 0.05075327
0.04844908 0.06393957 0.035904042 0.05794934 0.03679031 0.052880704 0.07264505 0.047443677
0.048114616 0.03024096 0.08846854 0.040973753 0.043223422 0.06719424 0.030226488 0.029322859

conv3.4.bias f4 [32]
00000000: 71aa 863d f407 6b3d 4f9f f93c abdd 7c3d
00000010: 579b be3c d64c 2e3d 33a8 833d 85f5 503d
00000020: eeb4 8d3d 09ed cd3d 2dcd 6e3d 1fdf a73d
00000030: 6c84 383d ef6f 423d 2dd3 923d 1265 8c3d
00000040: ffbc b43d 2e62 313d 79a9 573d 5e3f 0f3d
00000050: c952 6b3d cae3 473d 3b43 223d e05d 773d
00000060: 0b5d 823d 295b b13d 00ed 80bc a432 563d
00000070: 89fc 9f3d 7275 103d 4750 8c3d 4045 a23d
0.06575478 0.05738063 0.030471472 0.061734837 0.023267431 0.042553745 0.06428566 0.051015396
0.06919275 0.100549765 0.05830114 0.08196854 0.045048162 0.04747003 0.07169185 0.06855215
0.08825111 0.043306522 0.052651856 0.03497254 0.057451997 0.04880122 0.039614897 0.06039226
0.06365403 0.086599655 -0.01573801 0.05229439 0.07811839 0.035268255 0.06851249 0.07923365

conv3.4.running_mean f4 [32]
00000000: c3ca b33c ec8b 3fbc fff4 c8bc c94e 83bc
00000010: 162d 0b3a 10f1 4f3c cd7c ccbc e795 903b
00000020: 895d 9c3c bac2 743c b62a 06bd 5026 703c
00000030: c4a4 bbbc 5619 0a3c 0a95 403b d2a5 203d
00000040: d9d3 b5bb 33d6 993c 65c9 86bb 3d01 8abc
00000050: d6f3 d9bc fc25 22bd 3651 0d3c 58a1 59bc
00000060: a489 263c 9715 07bd 159e c2bb 8d90 bd3c
00000070: ab36 6fbb 853a f73c 358b d4bb 59e0 e8ba
0.02194727 -0.011691075 -0.024530886 -0.016028779 0.00053091475 0.012691751 -0.024961853 0.004412401
0.01908757 0.014939005 -0.032755576 0.014657572 -0.022905715 0.008428892 0.002938571 0.03922064
-0.005548936 0.018778896 -0.0041133636 -0.016846294 -0.026605528 -0.039587006 0.008625319 -0.013283096
0.010164652 -0.032979574 -0.005939255 0.023140216 -0.003650109 0.030179271 -0.0064863213 -0.0017767056

conv3.4.running_var f4 [32]
00000000: d731 3b39 18d6 003a 204d 0939 e892 8e39
00000010: 8524 3739 9f67 2439 5115 a539 fd48 aa39
00000020: 4fb1 6539 52b0 0139 9e2c 3839 1c40 bc38
00000030: 99c3 bf39 0d11 3239 20f1 3039 d3ef 9c39
00000040: ba20 6639 37a6 9939 053f f938 20d7 b039
00000050: 7e57 b539 7f3a 6d39 b768 d338 48eb 3439
00000060: c1d7 1f39 6e3a c638 75d0 2639 6314 1c39
00000070: 4c0d 5f39 4066 2039 0921 4639 8bf0 5039
0.00017852277 0.0004914715 0.0001309407 0.00027193804 0.00017465845 0.0001567886 0.00031487134 0.00032479307
0.00021905194 0.00012368083 0.00017564229 8.97648e-05 0.0003657609 0.00016981755 0.00016874494 0.00029933322
0.00021946701 0.00029306274 0.000118849835 0.00033729617 0.00034588197 0.00022623873 0.00010080769 0.00017253787
0.00015243796 9.452259e-05 0.0001590865 0.00014884914 0.00021271891 0.0001529688 0.00018895058 0.00019926035

conv4.0.weight f4 [32, 1, 3, 3]
00000000: 40f2 34bb cc0e 33bd e781 d63a 37b4 6bbc
00000010: 1b45 7ebd c0de 01bd 3b99 3d3b 0bf1 a9bd
00000020: e8b8 1e3c 9806 1ebb 82dd c93b 8d72 bc3a
00000030: b654 4e3b cd1c 353e b569 21bc fa54 73bc
00000040: ab88 af3b 9b8e 2dbc 1cfe e5bb 480b 003e
00000050: 193c a0bc 7e61 a1ba 5d53 e73c 2723 f1bb
00000060: fcb1 e0bc c787 9fbd b7ed d3bc dea3 6a3d
00000070: 0c4b e33b 908d fdbd 6e2d c73d ed3b 893d
00000080: 71ac 10be fe94 acbb 709d 383d 41d7 21bc
00000090: 44b4 c63c b818 493d 3755 593c 0d98 f13c
000000a0: fc5e aa3d 10ff bf3c 7752 dbbb 3ab6 23bd
000000b0: 44c8 0f3c c344 ad3b 7d70 8abc 317e 8b3b
000000c0: c633 313b 9694 913d 3726 2c3c 3007 6d3c
000000d0: 381c a03d 41fa 7b3c 57f8 0abe b495 ed3c
000000e0: 5f5f 473d efb9 1cbe 6f31 cd3d 273d e83d
000000f0: 5bce 3ebc 4fef 023c 1aab 5b3b 5047 25bc
00000100: b924 25bc c92b 7bbc 7301 883d 940c fc3d
00000110: f1ba 663d 93c6 f23c c5fb 30bd f46e ea3c
00000120: f9ae b2bc fc99 d4bd d464 fdbc fb71 cdbb
00000130: 690c 00bd a39e 09bd 7d7e cd3b 5e5c 913d
00000140: 29e8 79b9 cc39 873c 54d9 a83d 419d fa3c
00000150: 106a e63d 2ba3 98bd fe95 a9bd 5e1f 8bbc
00000160: 1264 9ebd 3ab5 e23c 3cde ce3a 49ec 57bd
00000170: be94 8ebc 9cd7 473c 3793 1a3e d594 053d
00000180: 5e64 a8bb bc9c 55bd dc22 1dbc f34b b3bc
00000190: 0728 1ebc 0de9 0b3d f711 18be f574 1c3d
000001a0: 6a86 0e3d 6fc7 81bb d06b 8e3d 68ca 5e3c
000001b0: 29f9 b23c 9f40 df3d c5f9 f83c 648b 873c
000001c0: 9b57 99be 3299 9c3c 737a 213d 426f 97bc
000001d0: bd15 013d b085 a53c 4f86 173e 7e9e 483d
000001e0: 41e6 453c 8334 50bd 0182 14bc 42d1 83bd
000001f0: 16b5 1cbd 3824 69bd 7f2f bbbc 8cbd 443d
00000200: f1b3 dfbc 8e6d 3abd afce 753e 6ee0 95bd
00000210: 182a b3bc 73b0 d7bd d0b9 abba e8dd 213d
00000220: 834f 0b3d 2f53 1c3d 4984 a9ba 8270 013e
00000230: 865f 05bc c263 25bc 12c4 b33c e635 efbb
00000240: 7911 7239 6459 93bd 154b 0f3c 8c80 893c
00000250: 41f3 0ebe fec4 a53c b2ea 77bb 5984 333d
00000260: 2e61 58bc 9378 36bc 4787 8e3a 21eb 463c
00000270: 3426 833d 85e9 df3d 3bea c33b ff20 443c
00000280: eb4b 353c 9470 fabb 384b 9fbd c9c8 a13c
00000290: 0400 373b 6ba5 663d 63d2 f73d 66e4 45bd
000002a0: e2f8 d33c 1de5 85bd 264c a0bc f139 b9bb
000002b0: a20a 7bbd fd96 09bb 0b4a f43c 83cc 8bbc
000002c0: 04b6 e53c 471b 043c 3a41 1f3e b705 813b
000002d0: f9a6 303d d878 1d3e 2a9a 273d ae4a 95bc
000002e0: a384 753d b990 b0bc 25f6 20bd 0057 14be
000002f0: 7c05 31bd 88c8 963b a8ef dd3c 61a8 ec39
00000300: 2238 b2bb 6217 8b3d 8b38 be3d 1cfe 67bb
00000310: 90a7 633c 8902 eb3c 16b6 00bd 04f7 89bd
00000320: db8b 56bc 52ca d3bc b52c 36bd 1884 94bc
00000330: a50d 0e3c 475d 35bc 7287 223c a0d6 edbc
00000340: 312d 23be c6ab d4bc b6a6 db3c c722 e23d
00000350: 622d 053d 3471 9b3c ec93 e5bb 8559 db3c
00000360: 78d0 dabc 6a9b 9abd 107b ecbc b44e e8bc
00000370: c87d 12bd 576d c6bc fbd3 58bc 58b0 31bc
00000380: 5b60 90bc a954 9c3c c040 b2bc 031f 41bb
00000390: 081f 9a3c 40cc 803d 54fd 1fbe f383 cdbc
000003a0: a404 d63d 9f5e 963b a76d dc3c 2926 0a3d
000003b0: e618 b13c 7dd4 f63b 15f4 d53d 0fbf a43b
000003c0: 4857 a9bc 8dfd 81bc 0fa6 8ebc 1034 42bd
000003d0: 15de f2bd 498c 40bd 5abe a23d 8585 1b3e
000003e0: a5c0 27bd fdfe 49bc aae4 b63c 8769 963c
000003f0: f6a2 9bbc c0ef b63c 3e99 553d 5d3f 363d
-0.0027610213 -0.043715283 0.0016365618 -0.014386228 -0.062077623 -0.03170657 0.0028930444 -0.082979284
0.00968764 -0.0024112817 0.006160439 0.00143774 0.0031483597 0.17686768 -0.009851863 -0.014851803
0.0053568683 -0.010593082 -0.0070188176 0.12504303 -0.019559907 -0.001231238 0.028237993 -0.007358927
-0.02742862 -0.07789569 -0.025870187 0.057285182 0.0069364365 -0.123805165 0.09725462 0.06700883
-0.14128281 -0.0052667847 0.04507202 -0.009877981 0.02425588 0.04909584 0.013264946 0.029491449
0.08318898 0.023437053 -0.00669318 -0.039968707 0.008775774 0.005287738 -0.016899342 0.0042569865
0.0027038916 0.07108419 0.010507158 0.014467046 0.07817882 0.015379489 -0.13571297 0.029002048
0.048674937 -0.15305303 0.10019194 0.11339789 -0.011645879 0.007991626 0.0033518733 -0.010087803
-0.010079556 -0.015330263 0.066409014 0.123070866 0.056330625 0.029635703 -0.043208856 0.02861736
-0.02181195 -0.10380933 -0.030931868 -0.006269691 -0.031261835 -0.033598553 0.006271182 0.07097696
-0.00023832977 0.016507052 0.08244577 0.030592563 0.112506986 -0.07452997 -0.08280562 -0.01698273
-0.07733931 0.027674306 0.0015782784 -0.052715573 -0.01740491 0.012197401 0.1509522 0.03261264
-0.005138918 -0.052151427 -0.009590831 -0.021886801 -0.009653098 0.0341578 -0.14850603 0.038197476
0.034796156 -0.003960542 0.06954157 0.013598062 0.021847324 0.10900997 0.030392537 0.016545959
-0.2994965 0.019116018 0.039423417 -0.018485669 0.031514872 0.020205349 0.14797328 0.048979275
0.012078823 -0.05083133 -0.0090641985 -0.06436397 -0.038258635 -0.056919307 -0.022849796 0.04803233
-0.027307482 -0.045514636 0.24004625 -0.07318197 -0.021870658 -0.10531702 -0.0013101641 0.039518267
0.034011375 0.038165268 -0.0012933101 0.12640575 -0.00814045 -0.010094585 0.02194408 -0.0073001264
0.00023085428 -0.07194784 0.008745928 0.016784929 -0.13959982 0.020235535 -0.0037829098 0.04382739
-0.013206763 -0.011137146 0.0010874056 0.01214102 0.06403771 0.10933212 0.00597885 0.0119707575
0.011065464 -0.007642815 -0.07778019 0.019749062 0.0027923593 0.0563101 0.12100675 -0.04831352
0.025875513 -0.065378405 -0.01956756 -0.005652659 -0.061289437 -0.0020994537 0.029820463 -0.017065292
0.028040893 0.008063144 0.15552226 0.003937449 0.043127988 0.1537813 0.040918507 -0.018224087
0.059940945 -0.021553384 -0.03929724 -0.14486313 -0.04321812 0.004601542 0.027091816 0.0004513888
-0.0054388205 0.06791569 0.092881285 -0.0035399264 0.0138949305 0.028687732 -0.03142365 -0.067365676
-0.013094868 -0.02585331 -0.04447623 -0.018129393 0.008670245 -0.011069602 0.009919988 -0.029033005
-0.15935208 -0.025960814 0.026812892 0.110417895 0.032513984 0.018974878 -0.007006159 0.026776085
-0.026710734 -0.07549174 -0.028867275 -0.028357841 -0.035764486 -0.02422206 -0.013234134 -0.010845266
-0.01762407 0.019083338 -0.02175939 -0.0029467947 0.018813625 0.062889576 -0.15623981 -0.025087332
0.10450104 0.0045889164 0.026907755 0.0337278 0.021618318 0.007532655 0.104469456 0.005027659
-0.020671502 -0.015867973 -0.017413167 -0.047412932 -0.11858765 -0.047008786 0.07946463 0.15187652
-0.040955205 -0.01232886 0.022325832 0.018360866 -0.018998604 0.022331119 0.052148096 0.04449402

conv4.1.weight f4 [32]
00000000: 51c5 c83d 18be e63d 4f30 a73d 8f1c ea3d
00000010: 557c 843d 9e27 9c3d 0257 063e 2123 ae3d
00000020: 4434 c33d 8490 0d3e b6c2 d53d 3a43 e83d
00000030: 5889 1e3e b0a9 cc3d 4a54 103e de56 9c3d
00000040: 6a65 b53d 0453 993d d485 c23d bc9f c63d
00000050: 5015 d93d aed9 a53d dc18 f93d d4b1 d33d
00000060: ffc5 f33d 4011 f33d 5871 e33d 678b de3d
00000070: e2e7 c23d 14b1 283e 6965 003e adf9 f93d
0.0980326 0.11266726 0.08163511 0.11431228 0.06469027 0.07624744 0.13119128 0.08502794
0.09531453 0.1382466 0.10437529 0.113409474 0.1548208 0.09993303 0.14094654 0.07633756
0.08857234 0.07486537 0.09498182 0.09698436 0.10599768 0.0809816 0.12162945 0.103366524
0.11902999 0.118685246 0.11105603 0.10866433 0.095168844 0.164738 0.12538685 0.12205825

conv4.1.bias f4 [32]
00000000: 8e47 803d 1852 f73d ebd8 343d d5dd 443d
00000010: fa2e 8a3d 52ac 4e3d c6b6 eb3c 03f7 923d
00000020: 2905 803d ca1d 15bc f4b5 9bbd 5788 a0ba
00000030: 26a6 a03d 388f 9b3d d83b 58bc 2ffd ec3d
00000040: 77b3 7e3d 9fa7 a33d c438 033c 4fe9 6c3d
00000050: 2bdd 123e 157d d03d 4d59 4e3c 6390 573c
00000060: 3cc0 343d 5e1b 763b 28f1 aabd 7941 3f3c
00000070: 17a1 223d 3a02 0abd 8d6e 023d 2c00 253d
0.06263648 0.12076205 0.04415218 0.048063118 0.06747241 0.050457306 0.028773677 0.0717602
0.06250984 -0.009101341 -0.07603064 -0.0012247664 0.0784419 0.07595676 -0.013197862 0.115717284
0.06218287 0.079909556 0.008009139 0.057839688 0.14342181 0.101801075 0.012594533 0.013156983
0.04412864 0.0037552933 -0.08346778 0.011673325 0.03970441 -0.03369353 0.03184371 0.040283367
