pretrained_weights/slim_160_latest.onnx (onnx, 973972 bytes, 127 tensors)

conv1.0.weight f4 [16, 3, 3, 3]
0	0xbca9a70f	-0.020709543
1	0xbd608343	-0.05481268
2	0xbda9b1fd	-0.08285902
3	0xbd4b5a1e	-0.04964649
4	0xbd6c9277	-0.057756867
5	0xbdd3df36	-0.103453085
6	0xbcdb2cc6	-0.026754748
7	0xbc851775	-0.016246537
8	0xbd45f866	-0.048332594
9	0xbb4763c2	-0.003042445
10	0xbd6669b6	-0.056253158
11	0xbd097098	-0.033554643
12	0xbccdd757	-0.025127096
13	0xbd9c0d02	-0.076196685
14	0xbd96b5c3	-0.07358887
15	0x3c49ed9f	0.01232472
16	0xbd00bc02	-0.0314293
17	0xbcdbaa6a	-0.026814658
18	0x3d222d7f	0.03959417
19	0x3db4bc0e	0.08824931
20	0x3e333d6a	0.17503896
21	0x3db78587	0.08961015
22	0x3de5c284	0.112187415
23	0x3e21e92e	0.15811607
24	0x3d31361e	0.0432645
25	0x3d1dca96	0.03852328
26	0x3db6c234	0.0892376
27	0xbbeab550	-0.0071627274
28	0xbbf4c95d	-0.0074702934
29	0xbc0d41ad	-0.008621615
30	0xbd49a46a	-0.049229063
31	0xbd997492	-0.07492937
32	0xbd493559	-0.049123142
33	0xbd1aac95	-0.037762243
34	0xbd9cea2e	-0.07661854
35	0xbd573c16	-0.052547537
36	0x3b9e2126	0.004825729
37	0xbb04eadf	-0.0020281596
38	0x3be87599	0.007094097
39	0xbd71e34a	-0.05905465
40	0xbdd455ad	-0.10367904
41	0xbd80662f	-0.0626949
42	0xbd512c88	-0.05106786
43	0xbdc1a737	-0.09455722
44	0xbd8a335f	-0.067480795
45	0xbb8e99b7	-0.0043518203
46	0x3c4c3178	0.012462966
47	0xbc34d31b	-0.01103666
48	0x3db3449f	0.08753323
49	0x3e411601	0.1885605
50	0x3ddb829f	0.10718273
51	0x3dbbe019	0.091736026
52	0x3e49faab	0.19724528
53	0x3df3f4d2	0.1191193
54	0x000021d2	1.2132e-41
55	0x800004c0	-1.704e-42
56	0x80001bfe	-1.0042e-41
57	0x00000d2a	4.722e-42
58	0x8000107a	-5.91e-42
59	0x000001fb	7.1e-43
60	0x00001247	6.557e-42
61	0x80002170	-1.1995e-41
62	0x80000946	-3.327e-42
63	0x000021f7	1.2184e-41
64	0x80000536	-1.87e-42
65	0x00000e5b	5.15e-42
66	0x80002198	-1.2051e-41
67	0x80000b8c	-4.142e-42
68	0x000014f8	7.522e-42
69	0x800008d9	-3.174e-42
70	0x80000603	-2.157e-42
71	0x800008dd	-3.18e-42
72	0x00001f33	1.1192e-41
73	0x800011a5	-6.33e-42
74	0x80000f71	-5.54e-42
75	0x00001049	5.842e-42
76	0x000021fb	1.219e-41
77	0x000016ba	8.153e-42
78	0x00000a6a	3.736e-42
79	0x000012cc	6.743e-42
80	0x8000108a	-5.933e-42
81	0x3d791957	0.06081518
82	0x3d6e9fb4	0.058257774
83	0x39fa3cea	0.000477291
84	0xbbd7dc94	-0.0065875743
85	0x3c0f06c0	0.008729637
86	0x3c80d371	0.015725823
87	0xbd8ff99d	-0.07030032
88	0xbd5751d5	-0.052568275
89	0xbb9bb862	-0.0047522048
90	0x3d82a7b1	0.06379641
91	0x3d9acef9	0.07559008
92	0x3c990bad	0.018682325
93	0xbcb0519b	-0.021523288
94	0xbbaa1248	-0.0051901676
95	0x3c6a395a	0.0142959
96	0xbdad7648	-0.08469826
97	0xbd7b724f	-0.06138831
98	0xbb825b30	-0.0039781556
99	0x3da65091	0.081208356
100	0x3dbca3a3	0.09210899
101	0x3cc01eeb	0.023452243
102	0xbd280ac8	-0.041025907
103	0xbce64489	-0.028108852
104	0xbaf05b51	-0.0018337761
105	0xbd9dceef	-0.07705485
106	0xbd79f853	-0.061027836
107	0xbb495066	-0.0030718087
108	0xbb3d065d	-0.0028842904
109	0xbcd9a21c	-0.026566558
110	0xbd404e1b	-0.046949487
111	0x3ceeb3ba	0.029138435
112	0x3c0a22ce	0.00843115
113	0x3ccb77ca	0.024837393
114	0x3b546858	0.0032410827
115	0xbd50ca11	-0.050973956
116	0xbcbb11b6	-0.022835594
117	0x3b91e13b	0.0044518984
118	0xbcdf941d	-0.027292306
119	0xbd237013	-0.039901804
120	0x3c2ba8c7	0.010477251
121	0xbcc85456	-0.024454277
122	0x3c9187ee	0.017765012
123	0xbb9cf5fe	-0.0047900667
124	0xbd61905e	-0.05506932
125	0xbc21edbc	-0.00988334
126	0x3d263a25	0.040582795
127	0x3d7e1bd9	0.062038276
128	0x3d10a6d8	0.035315365
129	0xbd16dc88	-0.03683141
130	0xbd8fc77c	-0.070204705
131	0x3c84b8b5	0.016201356
132	0xbd4668a6	-0.048439644
133	0xbdc82165	-0.097719945
134	0xbcf8d120	-0.030373156
135	0x3c9d6ce4	0.019216962
136	0x3d07fc8f	0.033199843
137	0x3d05f5c5	0.032705087
138	0x3c9529f8	0.018208489
139	0x3d166943	0.03672148
140	0x3ccb7a3f	0.024838565
141	0xbcee1524	-0.029062815
142	0xbba021e1	-0.004886851
143	0xbca1e31c	-0.019761615
144	0x3c6e1aee	0.014532788
145	0x3cecc65c	0.028903179
146	0x3d0d5fc1	0.034515146
147	0x3cdaaa54	0.026692547
148	0x3d192905	0.037392635
149	0x3cb4d252	0.022072945
150	0xbbee390d	-0.0072699846
151	0x391c49fc	0.0001490488
152	0xbb08eee8	-0.0020894352
153	0xbd808bfe	-0.062767014
154	0xbd9e12ef	-0.07718455
155	0xbcd45d5a	-0.02592342
156	0x3d15f434	0.036609843
157	0x3cd320e9	0.025772529
158	0x3ce2dcf5	0.027693251
159	0x3d521e99	0.05129871
160	0x3d87cc04	0.0663071
161	0x3dc29dfa	0.09502788
162	0x3d00e8e8	0.031472117
163	0x3c9e152e	0.019297209
164	0x3d6992ef	0.057024892
165	0x3dbf21b8	0.09332603
166	0x3db78665	0.089611806
167	0x3e0ae87e	0.13565251
168	0x3cc0084a	0.023441453
169	0x3d05d5db	0.03267465
170	0x3d88cd14	0.066797405
171	0xbd876a66	-0.06612091
172	0xbdab9734	-0.08378449
173	0xbd1afc9b	-0.03783856
174	0xbd38d1bf	-0.045121904
175	0xbd9ebb09	-0.07750518
176	0xbceed115	-0.029152432
177	0xbd8eadfd	-0.069667794
178	0xbda5a94d	-0.08088932
179	0xbd89aad0	-0.06722033
180	0x3cc7da88	0.024396196
181	0x3d33d697	0.04390582
182	0xbccfa0f2	-0.0253453
183	0xbcdd3c39	-0.027006255
184	0xbb22f30e	-0.002486411
185	0xbdbb6db6	-0.09151785
186	0x3c7f7cb3	0.015593695
187	0x3d95d843	0.07316639
188	0xbc8dcdcc	-0.017310046
189	0xbd44830b	-0.047976535
190	0xbd8fcf11	-0.07021917
191	0xbd44efc2	-0.048080213
192	0xbcc22724	-0.023700304
193	0xbd3ba7d0	-0.045814335
194	0xbc07eb44	-0.008295838
195	0xbce7c8e9	-0.028294044
196	0xbd552779	-0.052039597
197	0xbc88aeda	-0.016684938
198	0x3d525b60	0.051356673
199	0x3d9b4a9b	0.07582589
200	0x3d3dd11a	0.046341993
201	0x3dbb3989	0.09141833
202	0x3de86aab	0.1134847
203	0x3db21d4e	0.08696996
204	0x3d6cdb43	0.05782629
205	0x3d9fb930	0.077989936
206	0x3d55f234	0.052232936
207	0xbcae2d84	-0.021261938
208	0xbc37cc42	-0.011218132
209	0xbcde923e	-0.027169343
210	0xbd236cfd	-0.03989886
211	0xbd5c0d52	-0.05372364
212	0xbd4e856c	-0.05042021
213	0xbc310108	-0.0108034685
214	0xbccf4f73	-0.025306439
215	0xbd27d5fe	-0.040975563
216	0x000021bd	1.2103e-41
217	0x8000065f	-2.286e-42
218	0x80000528	-1.85e-42
219	0x8000229c	-1.2416e-41
220	0x80000a28	-3.643e-42
221	0x000013fb	7.168e-42
222	0x8000217b	-1.201e-41
223	0x000018ac	8.85e-42
224	0x800021f8	-1.2186e-41
225	0x00000e6d	5.175e-42
226	0x00001437	7.252e-42
227	0x00000213	7.44e-43
228	0x80001747	-8.35e-42
229	0x800015c0	-7.802e-42
230	0x80001b59	-9.81e-42
231	0x00001fb6	1.1376e-41
232	0x00000303	1.08e-42
233	0x00001457	7.297e-42
234	0x000002af	9.63e-43
235	0x80000a2d	-3.65e-42
236	0x80001248	-6.558e-42
237	0x80000ec7	-5.301e-42
238	0x00000592	1.998e-42
239	0x000003c3	1.35e-42
240	0x800013ad	-7.058e-42
241	0x80001da1	-1.0629e-41
242	0x000007a4	2.741e-42
243	0xbcd7112e	-0.02625331
244	0x3d75cac2	0.060007818
245	0xbc66ded3	-0.014091211
246	0xbd81855d	-0.06324265
247	0x3d5e656a	0.054295935
248	0x3d079c54	0.03310807
249	0xbd8b7a44	-0.0681043
250	0xbc01c871	-0.007921324
251	0x3c86f8d8	0.01647608
252	0xbc89b05e	-0.016807731
253	0x3d860839	0.06544537
254	0xbb378068	-0.002800012
255	0xbd8f804b	-0.07006892

conv1.1.bias f4 [16]
0	0x3deb0ab7	0.11476653
1	0x3d843efd	0.064573266
2	0x80000f38	-5.46e-42
3	0x3daf68e4	0.08564928
4	0x3d35b92d	0.04436605
5	0xbd32c8a2	-0.04364837
6	0x3d23fd31	0.040036384
7	0x3dd04961	0.10170246
8	0x80000a6a	-3.736e-42
9	0x3db12be3	0.08650949
10	0xbd1565fa	-0.036474206
11	0x3dcb7408	0.099342406
12	0x3d2aadd2	0.041669674
13	0x80003467	-1.8798e-41
14	0x3da1105d	0.07864449
15	0x3db7e33b	0.08978888

conv1.1.running_mean f4 [16]
0	0x3e2eea55	0.17081578
1	0x3e2b9872	0.16757372
2	0x000007de	2.822e-42
3	0xbabe79cb	-0.0014532147
4	0x3d281217	0.041032877
5	0xbd534d98	-0.05158767
6	0xbd01a6a2	-0.031653054
7	0xbd16eed4	-0.036848858
8	0x0000068f	2.353e-42
9	0x3b4a820e	0.0030900273
10	0xbd2c897b	-0.0421233
11	0xbd035243	-0.032060873
12	0x3d5b94fe	0.053608887
13	0x000003cf	1.366e-42
14	0x3a8ebf36	0.0010890726
15	0xbce6e273	-0.028184151

conv1.1.running_var f4 [16]
0	0x3d3f681d	0.04673015
1	0x3d1e2e24	0.038618222
2	0x00000004	6e-45
3	0x3b86e1df	0.0041162814
4	0x3ccf3f7b	0.025298825
5	0x3d0bf6b7	0.034170832
6	0x3c0c6d12	0.008570926
7	0x3bd69787	0.006548825
8	0x00000004	6e-45
9	0x3b361215	0.0027781774
10	0x3ca5a8ef	0.020222155
11	0x3cf9bf65	0.030486772
12	0x3d13e7f0	0.036109865
13	0x00000004	6e-45
14	0x3b1be190	0.0023785569
15	0x3cfa2e93	0.030539786

conv1.1.weight f4 [16]
0	0x3daca5b2	0.084300414
1	0x3d9087ce	0.07057153
2	0x000005ae	2.037e-42
3	0x3d54bbfc	0.05193709
4	0x3dd41545	0.10355619
5	0x3df48867	0.11940079
6	0x3d7098be	0.058739416
7	0x3d121f7e	0.035674565
8	0x00001e57	1.0884e-41
9	0x3d2b4cb9	0.041821215
10	0x3de504e9	0.11182577
11	0x3d44db04	0.048060432
12	0x3df4f979	0.11961646
13	0x8000157c	-7.707e-42
14	0x3d412261	0.047151927
15	0x3d25190e	0.040307097

conv10.0.weight f4 [128, 1, 3, 3]
0	0xbca60edb	-0.020270756
1	0xbd3da050	-0.046295464
2	0xbcc6b3cc	-0.024255656
3	0x3d1ee96f	0.03879684
4	0xbd4f5672	-0.05061955
5	0x3d160ce4	0.036633387
6	0x3d08ec69	0.033428583
7	0x3d879317	0.06619852
8	0x3d4b6da0	0.049665093
9	0x3bd373cf	0.0064530144
10	0x3d5c63e4	0.0538062
11	0x3c48a337	0.012245945
12	0xbbb0fbf7	-0.0054011303
13	0x3dcd1ea3	0.10015609
14	0x3bb5e96d	0.005551508
15	0xbc85dc0b	-0.016340276
16	0xbc3ab10e	-0.011394752
17	0xbcaf12d3	-0.02137128
18	0x3c86de06	0.01646329
19	0x3d0ff837	0.035148825
20	0x3c8d8be3	0.017278617
21	0x3d0046f8	0.03131768
22	0x3d2c4474	0.04205747
23	0x3d171806	0.036888145
24	0x3ba67236	0.005079533
25	0x3d3c7bf9	0.046016667
26	0x3c086c87	0.008326656
27	0x3bf95188	0.0076085962
28	0xbb8a6d6a	-0.004224469
29	0x3bbdd61f	0.0057933475
30	0x3cefe2f8	0.029283032
31	0x3d95af7d	0.07308862
32	0x3d1d8893	0.038460325
33	0x3c98e7f0	0.018665284
34	0x3d28ba20	0.041193128
35	0x3cb4a670	0.02205202
36	0x3bc2693c	0.005932955
37	0x3ba8a893	0.0051470487
38	0x3b5c8c9e	0.003365315
39	0x3ccf3122	0.025291983
40	0x3ddc75a2	0.10764624
41	0x3d0a257f	0.033727165
42	0x3c0fc1ef	0.008774265
43	0x3d188b8c	0.037242457
44	0x3c805518	0.015665576
45	0x80001721	-8.297e-42
46	0x000010e8	6.065e-42
47	0x00000d0b	4.679e-42
48	0x800031a8	-1.7813e-41
49	0x80000bb5	-4.2e-42
50	0x80000d6e	-4.818e-42
51	0x8000064f	-2.263e-42
52	0x000011c5	6.375e-42
53	0x800004b6	-1.69e-42
54	0x3bf8a99d	0.007588579
55	0x3bdd879d	0.006760551
56	0x3c383f74	0.011245597
57	0x3cc7d562	0.024393741
58	0x3d68778d	0.056754638
59	0x3cf8c167	0.030365659
60	0x3cfa74b0	0.030573219
61	0x3d5b83d4	0.053592518
62	0x3d0cb5bd	0.034353007
63	0xbc7a2d71	-0.015269623
64	0xbbed16ff	-0.0072354074
65	0xbcae2a7a	-0.021260489
66	0xbd09bdbf	-0.03362822
67	0x3e2bfebc	0.16796392
68	0xbcc7fb27	-0.024411751
69	0xbbe4c58e	-0.006981558
70	0x3be677b3	0.007033312
71	0xbbd81c99	-0.006595206
72	0x3cc4478e	0.023959901
73	0x3d614ef1	0.055006925
74	0x3ce27948	0.027645722
75	0x3d10a23b	0.035310965
76	0x3d16faca	0.036860265
77	0x3d1f9000	0.03895569
78	0x3c81d041	0.015846374
79	0x3bb1c144	0.0054246504
80	0x3c8c28ef	0.017109362
81	0x3c977045	0.018486151
82	0x3d22732b	0.039660614
83	0x3cadc7dc	0.021213464
84	0x3cc65025	0.024208138
85	0x3c9c62bd	0.01909005
86	0x3cdce348	0.026963845
87	0x3d024e60	0.031813025
88	0xbc40647d	-0.011742708
89	0x3cf69d61	0.030104341
90	0x3b8e53a1	0.0043434654
91	0x3c8ef819	0.017452287
92	0x3b870ea9	0.0041216207
93	0x3ccfdb84	0.025373228
94	0x3d7f64cd	0.06235199
95	0x3cf62e85	0.03005148
96	0x3c4fbcc6	0.012679284
97	0x3d6f6dc2	0.058454283
98	0x3c84299f	0.016133128
99	0x0000143d	7.26e-42
100	0x000014b3	7.425e-42
101	0x000004b3	1.686e-42
102	0x80002102	-1.1841e-41
103	0x800015c1	-7.804e-42
104	0x80000c5d	-4.435e-42
105	0x00001249	6.56e-42
106	0x80000726	-2.564e-42
107	0x8000089e	-3.091e-42
108	0xbc275670	-0.010213479
109	0xbc985d57	-0.018599195
110	0xbc50d97d	-0.012747166
111	0x3a212558	0.0006147227
112	0x3da4deb1	0.080502875
113	0x3c5d9074	0.01352321
114	0x3c93eab0	0.018056244
115	0x3d61d28e	0.05513244
116	0x3ccfe89e	0.025379475
117	0x00000d25	4.715e-42
118	0x000017f4	8.593e-42
119	0x00002006	1.1488e-41
120	0x00000ea6	5.255e-42
121	0x8000120d	-6.475e-42
122	0x00000559	1.918e-42
123	0x000012b2	6.707e-42
124	0x80000dac	-4.905e-42
125	0x80000d12	-4.689e-42
126	0x3cf2dcdb	0.029646328
127	0xbc5aa894	-0.013345856
128	0xbc8413e3	-0.016122764
129	0x3d0db44a	0.034595765
130	0x3baf9a1c	0.0053589474
131	0xbd1f31e7	-0.03886595
132	0x3d8106bb	0.06300112
133	0xbd3449f6	-0.044015847
134	0xbd96d9c4	-0.07365754
135	0x3ba197bb	0.0049314178
136	0x3c95a17f	0.018265484
137	0x3bdbb632	0.006705069
138	0x3b223498	0.0024750587
139	0x3dd03baa	0.1016763
140	0x3c32c3c2	0.01091093
141	0x3c72dcfb	0.014823194
142	0x3c8d6222	0.017258707
143	0x3cadb5bd	0.021204824
144	0xbca05821	-0.019573273
145	0xbcbccb67	-0.023046209
146	0xbcd8bc6b	-0.026457032
147	0xbd2487da	-0.04016862
148	0xbb7ff1a6	-0.0039053946
149	0xbd1a34aa	-0.03764788
150	0xbcf93a65	-0.030423352
151	0xbd22b256	-0.039720856
152	0xbd145501	-0.03621388
153	0x3cb65dc6	0.022261512
154	0x3d1e4bd3	0.03864653
155	0x3cbaeec7	0.022818936
156	0x3ccc101f	0.02491003
157	0x3d7e2b49	0.062053
158	0x3cff95fa	0.031199444
159	0x3c8be1c9	0.017075436
160	0xbb5c2914	-0.003359382
161	0x3c912dba	0.017722
162	0xbd0d7662	-0.034536727
163	0xbd1e2a23	-0.038614403
164	0xbd0d238c	-0.03445773
165	0x3a6f7236	0.0009134145
166	0x3cc988c9	0.024601357
167	0x39defb82	0.00042530528
168	0x3cdf525e	0.027260955
169	0x3da6fff2	0.081542864
170	0x3d14b0d2	0.03630144
171	0x0000030f	1.097e-42
172	0x00000bcc	4.232e-42
173	0x0000039d	1.296e-42
174	0x80002140	-1.1928e-41
175	0x80000914	-3.257e-42
176	0x80000d2d	-4.727e-42
177	0x00001fc5	1.1397e-41
178	0x80000e66	-5.165e-42
179	0x0000107e	5.916e-42
180	0x3c848a06	0.016179096
181	0x3d2fc8d6	0.04291614
182	0x3cb1cdc9	0.021704571
183	0x3d342e7a	0.043989636
184	0x3cf59b36	0.029981237
185	0x3d472df7	0.04862782
186	0x3c8b8100	0.017029285
187	0x3ce8569b	0.02836161
188	0x3c9f7b62	0.019468013
189	0xbc862668	-0.016375735
190	0xbd4127b3	-0.047157
191	0xbcb9969e	-0.022654828
192	0xbd24ee74	-0.04026647
193	0xbd4f25c9	-0.050573144
194	0xbd32b429	-0.043628845
195	0xbc16050b	-0.009156476
196	0xbd3f0339	-0.046633933
197	0xbc47eebb	-0.012202914
198	0x3cb5081a	0.02209859
199	0x3ccc7e54	0.024962582
200	0x3c98f304	0.018670566
201	0x3cf03687	0.029322876
202	0x3ce56c52	0.028005753
203	0x3d270273	0.04077382
204	0x3cda45b9	0.026644574
205	0x3d2a568c	0.041586444
206	0x3d022e3f	0.031782385
207	0x80002287	-1.2386e-41
208	0x00001dff	1.076e-41
209	0x80001181	-6.279e-42
210	0x80000346	-1.174e-42
211	0x000017a3	8.479e-42
212	0x800022af	-1.2442e-41
213	0x00000dd4	4.96e-42
214	0x000014f6	7.52e-42
215	0x00000978	3.397e-42
216	0xbc4bf735	-0.0124490755
217	0xbc3c7766	-0.011503076
218	0x3cf1499e	0.029454049
219	0xbd6a9526	-0.057271145
220	0x3c155637	0.0091147935
221	0x3d232f7e	0.039840214
222	0xbd808934	-0.062761694
223	0xbd2f7183	-0.042832863
224	0x3d864743	0.06556561
225	0x3c87b205	0.016564379
226	0x3da699c6	0.08134799
227	0x3cb849f7	0.022496207
228	0x3cf0abef	0.02937886
229	0x3ce12011	0.02748111
230	0x3d066ef2	0.03282065
231	0x3c6cd5c8	0.014455266
232	0xbca800cf	-0.020508198
233	0x3c8fecb3	0.017568922
234	0x3d00602f	0.031341728
235	0x3d6ae987	0.057351615
236	0x3d1c0fa7	0.038100865
237	0x3d16812d	0.036744285
238	0x3cc1db29	0.023664074
239	0x3d17e849	0.03708676
240	0x3b5aa818	0.0033364352
241	0xbb9c3ccd	-0.00476799
242	0x3b509588	0.0031827409
243	0x3ca730f7	0.02040909
244	0xbc1b74d8	-0.009488307
245	0xbc018b4b	-0.007906745
246	0x3d35ef6a	0.044417776
247	0x3c4b92e3	0.012425157
248	0xbdc9ae4c	-0.098476976
249	0x3bc861ec	0.006115189
250	0x3b8722d3	0.0041240244
251	0xbc35e438	-0.011101775
252	0x000010bc	6.003e-42
253	0x0000176b	8.401e-42
254	0x8000038f	-1.277e-42
255	0x800014f3	-7.515e-42

conv10.1.bias f4 [128]
0	0x3c8b0365	0.016969392
1	0xba7e6001	-0.0009703637
2	0xbd1cca47	-0.038278844
3	0x3d0583c8	0.03259638
4	0x3d328237	0.043581214
5	0x800f558a	-1.408218e-39
6	0x3d6fb7ad	0.058524776
7	0x3e210253	0.15723543
8	0xbc8eb496	-0.017420094
9	0x3ca8390b	0.020535013
10	0x3ca4e5f1	0.020129176
11	0x00217582	3.072725e-39
12	0xba474307	-0.00076012354
13	0x8005655c	-4.95538e-40
14	0x3bd60472	0.0065312916
15	0x3d0f5753	0.03499539
16	0x3d9603af	0.07324921
17	0xbaed17be	-0.0018088741
18	0x3d9424a6	0.07233553
19	0x80283056	-3.69076e-39
20	0x3ac2a861	0.0014851206
21	0x3e09827f	0.13428687
22	0x3d261b89	0.040553603
23	0x806b8eb4	-9.87759e-39
24	0xbacfcd00	-0.0015853941
25	0x3c8084fe	0.015688416
26	0xbc3bc302	-0.011460068
27	0x3e527248	0.20551407
28	0x000bc4c6	1.08078e-39
29	0x3c83a822	0.016071383
30	0x3d15d4ab	0.03657977
31	0xbb81bac6	-0.0039590327
32	0x3bfe829b	0.007767034
33	0x3dcc67ce	0.09980737
34	0x3d3afb85	0.045650024
35	0x3d88a19b	0.06671449
36	0x3cd28260	0.025696933
37	0x3c84a92b	0.016193947
38	0x3ca8b966	0.020596217
39	0x8045c0d2	-6.40582e-39
40	0x809657fe	-1.380689e-38
41	0x3d4af179	0.049546693
42	0x3c67565d	0.014119712
43	0xbc65f2e3	-0.0140349595
44	0x3dcb48a1	0.09925962
45	0x800fc3d0	-1.447777e-39
46	0xbbdf82f3	-0.0068210303
47	0x801d7c00	-2.707712e-39
48	0x3d0ebf4a	0.034850396
49	0x3e048671	0.1294191
50	0x3dff82cc	0.124761194
51	0x3dd6aa4d	0.10481701
52	0x3d12cfbf	0.035842653
53	0x3e240f85	0.16021545
54	0x802d1df4	-4.143342e-39
55	0xb9c44a1e	-0.00037439255
56	0xbccbfad7	-0.024899883
57	0xbc84a3da	-0.016191412
58	0xbbe0f6f2	-0.0068653757
59	0x3c9b6d31	0.018972965
60	0x3d4f029b	0.050539594
61	0x3db31465	0.08744124
62	0x000cb53e	1.167043e-39
63	0xbc6a3e6f	-0.014297112
64	0x3df929b7	0.121661596
65	0xb99b259c	-0.00029591925
66	0xbc8a0940	-0.016850114
67	0x3bd96a96	0.0066350205
68	0x3daae3d8	0.08344239
69	0xbc6f8988	-0.014620192
70	0x806605c4	-9.369289e-39
71	0x00608e7c	8.867321e-39
72	0x3dab06f5	0.08350936
73	0x3d0cbdfd	0.034360874
74	0x80428a86	-6.110836e-39
75	0x800f7780	-1.420401e-39
76	0x001dc91e	2.735377e-39
77	0x3c8f9e58	0.017531559
78	0x3dc97c0e	0.09838115
79	0x3c764515	0.015031119
80	0x3de08416	0.109626934
81	0x3cba5f20	0.022750437
82	0x3defa0b5	0.11700574
83	0xbc8538f3	-0.016262507
84	0x3bc04863	0.005868004
85	0xbbeab37b	-0.007162509
86	0xbd7ca0cd	-0.06167679
87	0x3c43b477	0.011944882
88	0x3d7c3e10	0.061582625
89	0x3d7c943c	0.061664805
90	0x800e2cc0	-1.30175e-39
91	0x3d6ccb66	0.057811163
92	0x3dc04d25	0.09389714
93	0x3cd155ac	0.025553547
94	0xbc8b1a7f	-0.016980408
95	0x3d98013d	0.07422111
96	0x803b4538	-5.443125e-39
97	0x3e39998f	0.18124984
98	0x3de953fe	0.11392973
99	0xbd29bc2e	-0.041439228
100	0x804ba7e8	-6.947896e-39
101	0x38865862	6.4060805e-05
102	0x3cd3d8d4	0.025860228
103	0x8006f198	-6.3768e-40
104	0xbd3717dc	-0.04470049
105	0x3c8306b3	0.015994405
106	0x3d8b445d	0.06800149
107	0x3d90a13b	0.07062002
108	0xbc0efc87	-0.008727199
109	0x3c2362f0	0.009972319
110	0x3db0e367	0.086371236
111	0x3dad237f	0.08454036
112	0xbc5accdc	-0.013354506
113	0x3e07b183	0.13251309
114	0xbd2964b2	-0.041355796
115	0xbba6c7ce	-0.0050897365
116	0xbcca7a44	-0.024716504
117	0x3a9d7df8	0.0012015691
118	0x3c9c005b	0.019043138
119	0x80174876	-2.13821e-39
120	0xbd11c8e9	-0.035591993
121	0x3d44a0c8	0.048004895
122	0x3ded76b6	0.11594908
123	0x80575512	-8.020206e-39
124	0xbca9104a	-0.02063765
125	0x801f01da	-2.847565e-39
126	0x802b1c10	-3.958993e-39
127	0x3c4452b9	0.011982613

conv10.1.running_mean f4 [128]
0	0x3a844628	0.0010091709
1	0x3b2bd207	0.0026217715
2	0x3aefea52	0.0018304086
3	0x3ba4aeea	0.005025734
4	0x3bc0e55d	0.0058867172
5	0x80000004	-6e-45
6	0x3bd4efdb	0.0064983196
7	0x3b891a30	0.00418403
8	0x3b863285	0.004095378
9	0x3aa481dd	0.0012550909
10	0x3ba77f10	0.0051115826
11	0x80000004	-6e-45
12	0x3abf27fb	0.0014584059
13	0x00000004	6e-45
14	0xbb2eafb1	-0.0026655013
15	0x3b357b3b	0.002769186
16	0xbba3de88	-0.005000893
17	0x3c20465c	0.0097824
18	0x3b0e7745	0.002173857
19	0x00000004	6e-45
20	0x3b6ad0a6	0.003582993
21	0xbbbce3ba	-0.005764452
22	0x3be1511e	0.006876125
23	0x00000004	6e-45
24	0xbafc7b3d	-0.0019262802
25	0x3b660c60	0.003510259
26	0x3b9230a7	0.004461366
27	0xbb07ea0f	-0.0020738875
28	0x80000004	-6e-45
29	0x3aa84220	0.001283709
30	0xbc4dcacf	-0.01256056
31	0x3b33735e	0.0027381997
32	0x3bd98976	0.006638701
33	0x3c33d197	0.010975263
34	0x3bb1e6cd	0.005429125
35	0xbbbb6edc	-0.0057200026
36	0x3bbb4dbf	0.005716055
37	0x3aa59858	0.0012633903
38	0x3b08b4fa	0.0020859824
39	0x00000004	6e-45
40	0x00000004	6e-45
41	0xbc2715e1	-0.010198087
42	0x3ca79e2f	0.02046117
43	0x3b63b418	0.0034744795
44	0x3aa18cda	0.0012325302
45	0x00000004	6e-45
46	0x3bd1b6c8	0.006399963
47	0x00000004	6e-45
48	0xbb57e7c1	-0.0032944533
49	0x3bd5dfb9	0.006526914
50	0x3a937b2e	0.001125192
51	0xbb058616	-0.002037411
52	0x3b4cb5de	0.003123633
53	0x3bae5d62	0.0053211907
54	0x00000004	6e-45
55	0x3c2a812a	0.010406772
56	0x3be8dcc2	0.0071063945
57	0x3b23c58f	0.002498958
58	0x3bb4c249	0.0055163247
59	0x3a9f65e6	0.0012161105
60	0x3c1830c0	0.009288967
61	0xbbd4bcfc	-0.0064922553
62	0x00000004	6e-45
63	0x3b77599a	0.0037742616
64	0x3b060c05	0.0020453942
65	0x3a4e2eea	0.0007865267
66	0x3b453fc4	0.0030097822
67	0x3b22dbc3	0.0024850226
68	0xba894f92	-0.0010475984
69	0x3bd16ae1	0.006390915
70	0x00000004	6e-45
71	0x00000004	6e-45
72	0x3ba5a434	0.005054975
73	0xbb6b8909	-0.0035939834
74	0x00000004	6e-45
75	0x00000004	6e-45
76	0x80000004	-6e-45
77	0x3a85a4fb	0.0010196263
78	0x3b7eebba	0.0038897828
79	0x3ab8e2ce	0.0014105679
80	0xbb530bd2	-0.003220309
81	0xbbe5912d	-0.0070058317
82	0x3bba09b1	0.005677425
83	0x3be198d9	0.006884676
84	0x3a3d967a	0.00072322006
85	0x3b769ab5	0.0037628834
86	0x3c7c9aaa	0.015417734
87	0xbc35376f	-0.01106058
88	0x3c3cc875	0.011522402
89	0x3c2decc7	0.010615534
90	0x80000004	-6e-45
91	0x3c26e4c1	0.010186375
92	0x3b3ec5ca	0.002910959
93	0x3ccee6d9	0.025256561
94	0x3b7790aa	0.0037775435
95	0x3c7300ee	0.014831765
96	0x00000004	6e-45
97	0x3a2b7e14	0.00065419194
98	0xbb8fe52c	-0.004391333
99	0x3b7760ba	0.0037746863
100	0x80000004	-6e-45
101	0x3b25eaec	0.0025317026
102	0x3b1238fe	0.0022311802
103	0x00000004	6e-45
104	0x3b9a426b	0.0047076247
105	0x3c6f1dff	0.014594554
106	0x3b9749e7	0.004616964
107	0x3adf9655	0.0017058352
108	0xbc26ac40	-0.010172904
109	0x394a1fe2	0.00019276098
110	0xbbc00181	-0.0058595543
111	0xbaa0c728	-0.0012266384
112	0x3b1e4430	0.002414953
113	0xbb654785	-0.0034985256
114	0x3b53669c	0.0032257205
115	0x3ba7b768	0.0051182993
116	0xba398a01	-0.0007077754
117	0xbc125548	-0.008931465
118	0x3b1d72da	0.0024024756
119	0x00000004	6e-45
120	0x3b921294	0.004457781
121	0xbc08469a	-0.008317614
122	0x3bb2f662	0.0054615
123	0x00000004	6e-45
124	0x3b2ce5ed	0.0026382164
125	0x00000004	6e-45
126	0x80000004	-6e-45
127	0x3b4c90ce	0.003121424

conv10.1.running_var f4 [128]
0	0x380a8902	3.3029362e-05
1	0x37b82f19	2.195644e-05
2	0x3716d362	8.989913e-06
3	0x38301e50	4.19899e-05
4	0x389f1344	7.585299e-05
5	0x00000004	6e-45
6	0x37fb94cb	2.9990819e-05
7	0x37cad66b	2.4180123e-05
8	0x37da2280	2.600369e-05
9	0x36ae7b83	5.1999828e-06
10	0x37d46dcf	2.5323503e-05
11	0x00000004	6e-45
12	0x37872764	1.6111597e-05
13	0x00000004	6e-45
14	0x3809e356	3.287507e-05
15	0x3814c86b	3.5472603e-05
16	0x3798b815	1.8205532e-05
17	0x37cd96ba	2.4508092e-05
18	0x37a3b427	1.9515004e-05
19	0x00000004	6e-45
20	0x37de41e2	2.6495141e-05
21	0x389f5792	7.598022e-05
22	0x37e0f995	2.6819102e-05
23	0x00000004	6e-45
24	0x3819f2a4	3.670402e-05
25	0x37e61aa3	2.743054e-05
26	0x37df5f6d	2.6628108e-05
27	0x375c80c8	1.3143006e-05
28	0x00000004	6e-45
29	0x379d44c5	1.8747882e-05
30	0x37d732ab	2.5653591e-05
31	0x3770ea57	1.4359676e-05
32	0x3816328d	3.5809866e-05
33	0x37b4fa84	2.1574328e-05
34	0x37ad7bc1	2.0680834e-05
35	0x37943fb4	1.7672639e-05
36	0x37edad68	2.833335e-05
37	0x37170670	9.0018e-06
38	0x38097734	3.2774362e-05
39	0x00000004	6e-45
40	0x00000004	6e-45
41	0x38091772	3.268518e-05
42	0x386dad61	5.6666675e-05
43	0x37765bac	1.4684087e-05
44	0x36d47608	6.331833e-06
45	0x00000004	6e-45
46	0x37bf2b43	2.278912e-05
47	0x00000004	6e-45
48	0x37f77cd0	2.9502815e-05
49	0x38080227	3.242693e-05
50	0x37d494c6	2.5341647e-05
51	0x37d6bdd2	2.559918e-05
52	0x37b0425e	2.101174e-05
53	0x37fc3e4d	3.0069752e-05
54	0x00000004	6e-45
55	0x386c528c	5.6343662e-05
56	0x37d8448c	2.5781126e-05
57	0x37a8edde	2.0137926e-05
58	0x37f14841	2.8763085e-05
59	0x3707b397	8.088441e-06
60	0x37cc5f86	2.4363177e-05
61	0x3845f105	4.7192927e-05
62	0x00000004	6e-45
63	0x37dac314	2.6078465e-05
64	0x37eb3a68	2.804138e-05
65	0x381032c9	3.4379573e-05
66	0x379f86ba	1.9017014e-05
67	0x379b829d	1.8538261e-05
68	0x37f69b17	2.9397705e-05
69	0x37a4ef1b	1.9661666e-05
70	0x00000004	6e-45
71	0x00000004	6e-45
72	0x37ba9d51	2.2246184e-05
73	0x37f059c5	2.8652032e-05
74	0x00000004	6e-45
75	0x00000004	6e-45
76	0x00000004	6e-45
77	0x3725bba0	9.878451e-06
78	0x37723772	1.4437233e-05
79	0x37e3e37c	2.716644e-05
80	0x381c5c5c	3.7279315e-05
81	0x37cd7633	2.4492945e-05
82	0x377dcbec	1.5127454e-05
83	0x37d1ac48	2.4994966e-05
84	0x380f3f7e	3.415299e-05
85	0x37e1a4c0	2.6898808e-05
86	0x3861b100	5.3809024e-05
87	0x37bfd915	2.2870061e-05
88	0x376e4fc0	1.4204474e-05
89	0x381d6d33	3.7533417e-05
90	0x00000004	6e-45
91	0x383101f1	4.2201897e-05
92	0x37c79b8e	2.3795084e-05
93	0x3814ef4a	3.5508805e-05
94	0x37d41841	2.5283663e-05
95	0x3827f281	4.0041752e-05
96	0x00000004	6e-45
97	0x37c2a07f	2.3201339e-05
98	0x37d9bb6a	2.5955687e-05
99	0x37593064	1.2945475e-05
100	0x00000004	6e-45
101	0x373a011b	1.1086721e-05
102	0x37dc924e	2.6294172e-05
103	0x00000004	6e-45
104	0x37a80109	2.0027643e-05
105	0x381d16f3	3.745309e-05
106	0x37f1a3c7	2.8805704e-05
107	0x37800470	1.5260855e-05
108	0x37f25cb3	2.8891815e-05
109	0x376c2171	1.4074482e-05
110	0x38002f92	3.056188e-05
111	0x37bc54d5	2.245085e-05
112	0x379b45bb	1.850991e-05
113	0x37a6df05	1.9892594e-05
114	0x378f11a1	1.7055138e-05
115	0x37b23c3d	2.1247304e-05
116	0x379adaf6	1.8460192e-05
117	0x3881d805	6.191436e-05
118	0x37637975	1.3558533e-05
119	0x00000004	6e-45
120	0x37e9ec68	2.788585e-05
121	0x380ea4e3	3.4009e-05
122	0x37ee1cb8	2.8385184e-05
123	0x00000004	6e-45
124	0x3795c008	1.7851606e-05
125	0x00000004	6e-45
126	0x00000004	6e-45
127	0x37bbaf47	2.2373757e-05

conv10.1.weight f4 [128]
0	0x3dcd7605	0.10032276
1	0x3d8c8226	0.06860761
2	0x3d96accc	0.07357177
3	0x3d939c7e	0.07207583
4	0x3daa9612	0.08329405
5	0x000013fb	7.168e-42
6	0x3d77077a	0.060309865
7	0x3d864715	0.065565266
8	0x3da0a6ed	0.078443386
9	0x3d8b1687	0.06791406
10	0x3d8ad6d4	0.067792565
11	0x80000e45	-5.119e-42
12	0x3d864b10	0.06557286
13	0x00000aa7	3.821e-42
14	0x3db36785	0.08759979
15	0x3da96f3a	0.08273168
16	0x3d9654c7	0.07340389
17	0x3da9dc4a	0.0829397
18	0x3d4eb6cc	0.050467297
19	0x000003f8	1.424e-42
20	0x3d852227	0.06500655
21	0x3db94e7e	0.09048174
22	0x3d4b5983	0.049645912
23	0x0000048c	1.631e-42
24	0x3db7d5a0	0.089762926
25	0x3d827b82	0.063712135
26	0x3d73cac3	0.05951954
27	0x3d83cfd0	0.064361215
28	0x800018b4	-8.862e-42
29	0x3d89f899	0.06736869
30	0x3dab4299	0.08362312
31	0x3d951cf9	0.07280917
32	0x3d99d207	0.07510763
33	0x3d945510	0.07242787
34	0x3d3aa6c5	0.0455692
35	0x3d830c28	0.06398803
36	0x3d7f0bfa	0.06226728
37	0x3d640717	0.055670824
38	0x3d9a9f17	0.07549875
39	0x800010ba	-6e-42
40	0x8000026c	-8.69e-43
41	0x3dbc1c35	0.091850676
42	0x3e0a164b	0.13485067
43	0x3d9324a0	0.0718472
44	0x3d39ea12	0.045389242
45	0x000006ff	2.51e-42
46	0x3d7d473a	0.061835505
47	0x000022d7	1.2498e-41
48	0x3daff91b	0.08592435
49	0x3d9b7849	0.07591302
50	0x3d6bbe60	0.057554603
51	0x3d8ce2f5	0.06879226
52	0x3d695a2b	0.056970757
53	0x3da72e60	0.08163142
54	0x000010b8	5.998e-42
55	0x3dae8b97	0.085227184
56	0x3da1c239	0.07898373
57	0x3daac91c	0.0833914
58	0x3d91c388	0.07117373
59	0x3d570c84	0.05250217
60	0x3da95b12	0.082693234
61	0x3db76293	0.089543484
62	0x8000048b	-1.63e-42
63	0x3d855794	0.06510845
64	0x3d991e04	0.07476428
65	0x3df2c679	0.11854262
66	0x3d894818	0.06703204
67	0x3d6afbfc	0.057369217
68	0x3d9b3760	0.07578921
69	0x3db30da8	0.08742839
70	0x80002141	-1.1929e-41
71	0x800014bb	-7.437e-42
72	0x3db07f9c	0.086180896
73	0x3dad5441	0.08463336
74	0x00001b56	9.806e-42
75	0x00001c2d	1.0108e-41
76	0x00000384	1.261e-42
77	0x3d6451b9	0.055742
78	0x3d78fc4b	0.06078748
79	0x3dcc711e	0.09982513
80	0x3d96983a	0.07353254
81	0x3db76721	0.08955217
82	0x3db63e83	0.08898642
83	0x3d9eb496	0.07749288
84	0x3ddea189	0.10870654
85	0x3d96db4b	0.073660456
86	0x3de37a65	0.11107329
87	0x3ddb05b3	0.106944464
88	0x3d8cdcca	0.0687805
89	0x3d7d5e71	0.061857644
90	0x80001bea	-1.0014e-41
91	0x3da5e591	0.08100427
92	0x3d66be0c	0.056333587
93	0x3dba479d	0.090956904
94	0x3d91d9c9	0.07121617
95	0x3d8b467d	0.06800554
96	0x00002ea2	1.6729e-41
97	0x3d99e46f	0.075142734
98	0x3d7d2b6e	0.061808996
99	0x3da39543	0.07987454
100	0x00001c9f	1.0267e-41
101	0x3d79293b	0.060830336
102	0x3d905253	0.07046952
103	0x0000013b	4.41e-43
104	0x3db2f964	0.08738974
105	0x3dc5b1a9	0.096530266
106	0x3da2d0ed	0.07950006
107	0x3d4d6815	0.05014809
108	0x3dcd9886	0.10038857
109	0x3da16fe3	0.07882669
110	0x3d9c6a20	0.07637429
111	0x3dac0d9b	0.084010325
112	0x3d7c081c	0.06153117
113	0x3d4eadee	0.05045884
114	0x3d9c20e0	0.07623458
115	0x3d9bfd67	0.07616692
116	0x3db7da4d	0.089771844
117	0x3e13bb29	0.14426865
118	0x3d4f2fba	0.050582625
119	0x00000e39	5.102e-42
120	0x3da4d4f2	0.080484286
121	0x3da2a9eb	0.079425655
122	0x3d803cb9	0.06261582
123	0x000017f6	8.596e-42
124	0x3d7aaaa9	0.06119791
125	0x00001e24	1.0812e-41
126	0x000001c5	6.35e-43
127	0x3d88c82a	0.06678803

conv10.3.weight f4 [128, 128, 1, 1]
0	0xbb8c159d	-0.0042750374
1	0x3ccf946e	0.025339331
2	0x3ccb32a7	0.024804426
3	0x3ccb3cbe	0.024809238
4	0xbcfc0426	-0.030763697
5	0x80002c6c	-1.5936e-41
6	0xbd3c4947	-0.04596832
7	0xbb683c7f	-0.003543645
8	0xbc53f84e	-0.012937618
9	0xbc6d649e	-0.014489321
10	0xbcc62328	-0.024186686
11	0x0000418c	2.3514e-41
12	0xbc64f481	-0.01397431
13	0x800316bc	-2.83662e-40
14	0xbc7f332d	-0.015576166
15	0xbcdcae93	-0.026938712
16	0x3c825ec3	0.015914327
17	0xbc988a59	-0.018620657
18	0xbc05564a	-0.008138249
19	0x80027fb8	-2.29488e-40
20	0x3b508dcf	0.0031822806
21	0x3d32ee7e	0.043684475
22	0xbbf081f4	-0.0073397104
23	0x80003efc	-2.2595e-41
24	0xbc4ee95e	-0.012628881
25	0x3d19b2f7	0.03752419
26	0x3c526e28	0.012843646
27	0xbcc80262	-0.024415199
28	0x00001b30	9.753e-42
29	0xbd72364e	-0.05913382
30	0xbd009274	-0.03138967
31	0xbcedf3a5	-0.029046843
32	0x3d088d30	0.033337772
33	0xbb7e0774	-0.0038761767
34	0x3d78cbff	0.06074142
35	0x3d344d1a	0.044018842
36	0x3c03ddf2	0.008048521
37	0x3b93dfa6	0.004512745
38	0x3cbf5172	0.023354266
39	0x80003d68	-2.2028e-41
40	0x8000496c	-2.6339e-41
41	0xbca5eb38	-0.020253763
42	0xbc3f18e2	-0.011663647
43	0x3d863927	0.0655387
44	0x3c225bce	0.009909583
45	0x00001fcc	1.1407e-41
46	0x3ce31599	0.02772026
47	0x01802e7c	4.7086476e-38
48	0x3ce1e0bd	0.027572984
49	0xbb3f7a4c	-0.0029217182
50	0xbd93c12e	-0.072145805
51	0xba95d317	-0.0011430708
52	0xbce67ba1	-0.028135123
53	0xb9c8622c	-0.00038220116
54	0x81003e60	-2.355464e-38
55	0xbc59e38d	-0.013298881
56	0x3d425abe	0.04744982
57	0xbcdc5d87	-0.026900066
58	0xbd944ade	-0.07240842
59	0x3cdb25cc	0.026751421
60	0xbca3bb09	-0.019986646
61	0x3bb790b0	0.005601965
62	0x800012b0	-6.704e-42
63	0x3b72c5ab	0.0037044089
64	0x3ce3c915	0.027805844
65	0xbd990c7b	-0.074730836
66	0x3c87e715	0.01658968
67	0x3c75e8e1	0.015009136
68	0xbd4a0700	-0.049323082
69	0xbd031c81	-0.032009605
70	0x846c5c0c	-2.7783933e-36
71	0x0533b7ef	8.450323e-36
72	0xbce026e8	-0.027362302
73	0x3cb74f6d	0.02237674
74	0x80000f24	-5.431e-42
75	0x80002344	-1.2651e-41
76	0x0505ab15	6.285053e-36
77	0x3cd9c861	0.026584806
78	0x3d039e8b	0.03213362
79	0xbc3c6da2	-0.011500748
80	0x3ccc4764	0.024936385
81	0x3ccab1d5	0.024743
82	0xbca6e494	-0.020372666
83	0xbc94c0d5	-0.018158356
84	0xbd875283	-0.06607535
85	0x3b11a594	0.0022223936
86	0x3c6b2f74	0.014354575
87	0x3d044c03	0.032299053
88	0x3b3c8ed2	0.002877165
89	0x3cb68140	0.022278428
90	0x8151c520	-3.8528668e-38
91	0x3d9ea8a3	0.07747009
92	0x3cdbf68b	0.02685096
93	0x3cc932ef	0.02456042
94	0x3c3d8449	0.011567184
95	0xbc28ae64	-0.010295484
96	0x00003030	1.7286e-41
97	0x3cc7be8a	0.024382848
98	0xbbab4330	-0.0052265152
99	0xbc2aadf2	-0.010417448
100	0x00002370	1.2713e-41
101	0x3bd9daaf	0.0066483836
102	0x39c9cb8f	0.0003848937
103	0x801c10cc	-2.57742e-39
104	0x3c15dd52	0.009147005
105	0xbd454860	-0.048164725
106	0xbcf25e55	-0.029585997
107	0xbd2f46e4	-0.042792216
108	0x3db89fbc	0.09014842
109	0xbc7d225d	-0.015450087
110	0xbd416bd8	-0.04722199
111	0xba097a7e	-0.0005244388
112	0x3ca40156	0.020020168
113	0xbd56f881	-0.052483086
114	0x3c349ce3	0.011023733
115	0x3c096e4e	0.008388115
116	0xbca17004	-0.019706734
117	0xbbcf2c32	-0.006322407
118	0xbca5182c	-0.020153128
119	0x80002fa8	-1.7096e-41
120	0x3b409fdd	0.002939216
121	0xbcd22eda	-0.025657106
122	0xbb964574	-0.004585916
123	0x00003752	1.9845e-41
124	0x3d13af7d	0.03605603
125	0x80002b40	-1.5515e-41
126	0x01a2ac08	5.9756254e-38
127	0x3d80e80d	0.0629426
128	0x3d635aa3	0.05550636
129	0xbd01bf9d	-0.031676877
130	0x3c3a7d1f	0.01138237
131	0x3c05af0d	0.008159411
132	0xbb2886db	-0.0025715146
133	0x818975f4	-5.0495106e-38
134	0xbc6be917	-0.014398835
135	0x3c067471	0.008206473
136	0xbab81a0c	-0.0014045849
137	0x3c80837b	0.015687695
138	0x3d76b6c8	0.060232908
139	0x000042b8	2.3934e-41
140	0x3c3741e7	0.011185146
141	0x803c79c8	-5.553817e-39
142	0x3c640bfa	0.013918871
143	0xbceac7ce	-0.028659727
144	0xbd18dae2	-0.037318118
145	0x3c84d1c1	0.0162133
146	0x3be8d487	0.0071054134
147	0x00174688	2.137518e-39
148	0xbcd90f9d	-0.026496703
149	0xbd40fb62	-0.047114737
150	0xbd9d1a89	-0.07671077
151	0x83c162d4	-1.136621e-36
152	0xbb2ae57b	-0.0026076722
153	0xbbe05589	-0.006846134
154	0xbd2085ab	-0.039189976
155	0x3d6388f1	0.05555052
156	0x80359a74	-4.922689e-39
157	0x3b090f68	0.0020913724
158	0xbcd4d46f	-0.025980202
159	0xbd6bab0e	-0.057536177
160	0x3c99c8c4	0.01877249
161	0x3b48b750	0.003062684
162	0x3cc6fe15	0.024291078
163	0xbd823517	-0.06357782
164	0x3b970749	0.0046090228
165	0xbc14989f	-0.009069591
166	0xbd2c584a	-0.042076387
167	0x80004830	-2.5896e-41
168	0x0000c484	7.0497e-41
169	0x3d03681e	0.032081716
170	0xbcbbaf98	-0.022910878
171	0x3c1ce4c9	0.009576031
172	0xbc8fd055	-0.017555395
173	0x02f2d203	3.5679245e-37
174	0x3c1370ee	0.0089990925
175	0x812a8a20	-3.1323169e-38
176	0xbc868f47	-0.016425742
177	0xbcfa6bda	-0.030569006
178	0xbce43f47	-0.027862204
179	0xbc618b4a	-0.013766119
180	0x3d65a9db	0.05607019
181	0x3c6d4bcb	0.0144834025
182	0x81100a1c	-2.6455876e-38
183	0xbd01bdca	-0.031675138
184	0xbca1ae73	-0.019736504
185	0x3c3d6a21	0.011560948
186	0xbd5544df	-0.052067634
187	0x3d1c1cd9	0.03811345
188	0xbd903547	-0.07041412
189	0x3cef0192	0.029175553
190	0x80003b5c	-2.1294e-41
191	0x3bc383bd	0.005966632
192	0xbca9bb78	-0.020719275
193	0xbc897690	-0.016780168
194	0x3bae2049	0.0053139073
195	0xbc7d3c93	-0.015456337
196	0x3c49c884	0.012315873
197	0xbba0bdb8	-0.0049054287
198	0x83db02d7	-1.2872315e-36
199	0x0430d1a9	2.0784972e-36
200	0xbcd640f8	-0.026154026
201	0xbbc4988f	-0.0059996317
202	0x00000e98	5.235e-42
203	0x80004818	-2.5862e-41
204	0x033e174e	5.5862734e-37
205	0x3caf57e9	0.021404224
206	0xbd4ed94b	-0.050500195
207	0x3cb74838	0.022373304
208	0xbdad3173	-0.08456697
209	0x3cfc618b	0.03080823
210	0x3af4028b	0.001861648
211	0xbbc0596b	-0.0058700345
212	0xbce4f03b	-0.027946582
213	0x3d40ed94	0.047101572
214	0xbb2d7a23	-0.0026470504
215	0x3c9f15cc	0.019419573
216	0xbc561ef2	-0.013068901
217	0x3d827ea5	0.06371812
218	0x81b334ce	-6.5829986e-38
219	0xbc8849e7	-0.016636802
220	0x3c7dd160	0.015491813
221	0xba940aa1	-0.0011294672
222	0xbcd519d7	-0.026013298
223	0x3d7e90b7	0.06214973
224	0x83b7561d	-1.0775544e-36
225	0xbbf10f53	-0.007356563
226	0x3d1471de	0.036241405
227	0x3d24fb88	0.04027894
228	0x030a4a1d	4.0639633e-37
229	0xbc7af3bb	-0.015316899
230	0x3c93b187	0.018028988
231	0x00093e54	8.48879e-40
232	0xbc57820d	-0.013153565
233	0xbc473876	-0.012159457
234	0x3d35b35e	0.04436051
235	0xbcf6d896	-0.030132573
236	0x3ce0551d	0.027384335
237	0xbc2f780d	-0.010709775
238	0xbc1d40db	-0.009597982
239	0x3c137f97	0.009002588
240	0x3c6f0cbc	0.014590438
241	0x3d9c6229	0.0763591
242	0xbb745472	-0.0037281779
243	0x3bef6bb9	0.0073065427
244	0xbca98b42	-0.020696286
245	0x3d03a40d	0.032138873
246	0xbcadbfda	-0.021209646
247	0x0008ac4c	7.96492e-40
248	0xbd119ce9	-0.03555003
249	0x3bdb91b1	0.0067007174
250	0xbc854b76	-0.016271334
251	0x80000a40	-3.677e-42
252	0xbcda8ea5	-0.026679346
253	0x000039e8	2.0773e-41
254	0x006497ac	9.237959e-39
255	0x3b900807	0.004395488

conv10.4.bias f4 [128]
0	0xbd89496c	-0.06703457
1	0xbd23e12a	-0.040009655
2	0xbd2915df	-0.041280624
3	0xbc857df8	-0.016295418
4	0xbc9dea18	-0.019276664
5	0x3c5d91e6	0.013523554
6	0x3d2a3513	0.04155452
7	0xbd67abfc	-0.0565605
8	0x3ca73e59	0.020415472
9	0x3d7bbd72	0.061459966
10	0x00000346	1.174e-42
11	0xbd8106e5	-0.06300143
12	0x3dc34e5c	0.0953643
13	0xbcf6c7b9	-0.030124532
14	0x3d538a7a	0.051645733
15	0x3cd80941	0.0263716
16	0x3c3d624e	0.011559082
17	0xbcb39c9e	-0.021925267
18	0xbc697b4f	-0.0142505905
19	0x3d1d0614	0.038335875
20	0x3d8d9a48	0.069141924
21	0xbd14909b	-0.03627072
22	0xbc871e10	-0.016493827
23	0x3cd899ae	0.026440468
24	0xbc0963a4	-0.008385573
25	0x3d1fb20f	0.03898817
26	0x00001060	5.874e-42
27	0x3c9273a2	0.017877404
28	0x3d49a655	0.049230892
29	0x3bd5e8d0	0.0065279976
30	0x3c24e0af	0.010063334
31	0xbd270645	-0.040777463
32	0x3c8b8c87	0.017034782
33	0xbca21a19	-0.019787835
34	0x3cfeec2e	0.031118479
35	0xbbb8e09e	-0.005642011
36	0xbc0252a2	-0.0079542715
37	0x3d6a25c1	0.05716491
38	0xbd377b67	-0.04479542
39	0x3d0033cd	0.0312994
40	0xbd40ac51	-0.047039334
41	0x3d08733a	0.033313014
42	0x3d4c3fc3	0.049865495
43	0xbbf5070c	-0.0074776467
44	0xbcfd835c	-0.030946426
45	0x00000af2	3.926e-42
46	0xbd67907c	-0.056534275
47	0x80002efb	-1.6853e-41
48	0x3d66ab5f	0.056315776
49	0xbcd6f329	-0.026238995
50	0xbd52c3ca	-0.05145625
51	0xbcc79d03	-0.024366861
52	0x3d51a02d	0.051178146
53	0x000003ac	1.317e-42
54	0xbd0a927e	-0.033831112
55	0xbc39ed69	-0.011348107
56	0xbd8112e4	-0.06302431
57	0xbd069d87	-0.032865074
58	0xbc4dc88a	-0.012560019
59	0xbc33718d	-0.010952366
60	0x80001682	-8.074e-42
61	0x3d30cf12	0.043166228
62	0x3d80a8bd	0.06282184
63	0xbce82353	-0.028337156
64	0x38889444	6.512602e-05
65	0xbd29756e	-0.041371755
66	0x3c717763	0.014737937
67	0x3d059343	0.032611143
68	0xbceb8371	-0.0287492
69	0xbc813b40	-0.015775323
70	0x3d964c54	0.07338777
71	0xbcea248d	-0.028581882
72	0xbd14ee66	-0.036360167
73	0xbbba0a0e	-0.005677468
74	0xbc605f21	-0.0136945555
75	0x3d715f28	0.05892864
76	0xbb014679	-0.0019725843
77	0xbd0b7f61	-0.034057025
78	0x3d2abde8	0.041685015
79	0xbcf3a48d	-0.02974155
80	0xbc304f0a	-0.010761032
81	0xbcab74e6	-0.020929765
82	0xbba11ed0	-0.004917003
83	0x3b691753	0.003556688
84	0xbcc955df	-0.02457708
85	0xbcd72499	-0.026262568
86	0x00002302	1.2558e-41
87	0xbcd0ab1e	-0.02547222
88	0xbca6078b	-0.020267269
89	0x3da590d5	0.08084265
90	0x3bfe0f7a	0.00775331
91	0xbd23e574	-0.040013745
92	0x3d266903	0.04062749
93	0xbcd96d67	-0.026541425
94	0x3d519411	0.051166598
95	0x3c853dda	0.016264845
96	0x3d281196	0.041032396
97	0xbcbc01dc	-0.022950105
98	0xbd927cb0	-0.071526885
99	0x00000abc	3.851e-42
100	0xbcfa75b0	-0.030573696
101	0x3d42adc4	0.047528997
102	0x3a3d9b65	0.00072329334
103	0x3d44ddfb	0.04806326
104	0x3d8cc6a9	0.06873829
105	0x3ca6bad3	0.020352757
106	0xbcd8dfc1	-0.026473882
107	0xbced4eab	-0.028968176
108	0x3d8935e8	0.06699735
109	0x3cfa531f	0.030557213
110	0x3b939354	0.004503647
111	0x3db36991	0.087603696
112	0x3d936616	0.07197206
113	0x3d69a5eb	0.057042997
114	0xbcd9bf6a	-0.026580531
115	0xbd260a1e	-0.040536992
116	0x80000b23	-3.995e-42
117	0x00000482	1.617e-42
118	0xbd843078	-0.06454557
119	0xbb74775b	-0.0037302587
120	0x3c49abd8	0.012309037
121	0xbc9e684c	-0.019336842
122	0x3cbff862	0.023433868
123	0xbca100d3	-0.019653713
124	0x3c8c456d	0.017122949
125	0xbc88b052	-0.016685639
126	0x3d9e71c3	0.07736542
127	0x0000200c	1.1496e-41

conv10.4.running_mean f4 [128]
0	0xbc7cf0ce	-0.015438272
1	0xbc0c3a95	-0.008558889
2	0x3bd51f24	0.0065039564
3	0xbbca9f4e	-0.0061835414
4	0x3c314c4c	0.010821413
5	0x3ca74a05	0.020421037
6	0x3c8512b8	0.016244277
7	0xbcad4fbe	-0.021156188
8	0xbd41e830	-0.047340572
9	0x3c5f6ada	0.013636315
10	0x00001193	6.304e-42
11	0x3c887d12	0.0166612
12	0xbb26c0f5	-0.0025444601
13	0xbc47c1b8	-0.012192182
14	0xbbfc6b2c	-0.0077032056
15	0xbba0d900	-0.004908681
16	0x3cc4588b	0.023968002
17	0xbcb46013	-0.022018468
18	0x3b160ffe	0.0022897716
19	0xbc8faa84	-0.017537363
20	0x3b958671	0.004563146
21	0xbcc15f3c	-0.023604982
22	0xbc2b3712	-0.0104501415
23	0x3c2579de	0.010099856
24	0x3d3df069	0.04637185
25	0xbc000599	-0.007813835
26	0x80000de4	-4.983e-42
27	0x3c26b333	0.01017456
28	0xbbad092a	-0.0052806335
29	0x3d0f10db	0.034928184
30	0xbc22971f	-0.009923725
31	0x3cd6d844	0.02622617
32	0xbc84316f	-0.016136853
33	0xbced337e	-0.028955217
34	0xbc0461a9	-0.008079925
35	0xbab7b7bb	-0.0014016548
36	0xbb5bdcc3	-0.0033548332
37	0x3d206a9f	0.03916418
38	0xbb5abe68	-0.003337765
39	0x3b43e219	0.0029889403
40	0x3c74360b	0.014905463
41	0xbc083821	-0.008314163
42	0x3cc7fb03	0.024411684
43	0xbd06bb58	-0.03289351
44	0x3ac24527	0.0014821634
45	0x8000008b	-1.95e-43
46	0xbcb312a4	-0.021859474
47	0x800002ad	-9.6e-43
48	0x3c0f1fb0	0.008735582
49	0x3a842f25	0.0010084851
50	0xbc0e5d66	-0.00868926
51	0xbb489ebd	-0.0030612194
52	0x3c1b0f47	0.009464092
53	0x0000070a	2.525e-42
54	0xbc060853	-0.008180696
55	0xbb734904	-0.0037122378
56	0xbab91946	-0.0014121912
57	0xbc970837	-0.018436534
58	0xbbe35f53	-0.0069388538
59	0x3c7b5a5b	0.015341367
60	0x80000ca4	-4.535e-42
61	0xbc1aa164	-0.009437893
62	0xbb86648d	-0.004101342
63	0xbc1a1dc7	-0.009406514
64	0xbba80977	-0.0051280814
65	0xbad50b75	-0.0016254025
66	0xbc871f74	-0.01649449
67	0x3ccbb861	0.024868192
68	0xbcef1c39	-0.029188262
69	0xbd38ce02	-0.04511834
70	0xbc0c0039	-0.008544975
71	0x3ba78621	0.005112425
72	0xbd131042	-0.035904177
73	0xbbd1c719	-0.006401908
74	0x3ca91bf4	0.020643212
75	0x3cc623db	0.02418702
76	0x3c6f270e	0.014596714
77	0xbbe195db	-0.0068843192
78	0x3b6fbc69	0.0036580807
79	0xbca6e1ce	-0.020371344
80	0xbbb0068d	-0.0053718747
81	0xbd360728	-0.04444042
82	0xbcb1b022	-0.021690432
83	0xbc64b5ba	-0.013959343
84	0xbc1be0ab	-0.009514014
85	0xbcaf9cca	-0.021437068
86	0x0000054c	1.9e-42
87	0x3cb9612b	0.022629341
88	0xbc6d1455	-0.01447018
89	0x3baf6eea	0.005353798
90	0xbb94770c	-0.004530793
91	0xbc9b793d	-0.01897871
92	0xbd03cca7	-0.032177594
93	0x3be50d62	0.0069901207
94	0xbb929795	-0.0044736364
95	0x3ca9d923	0.020733422
96	0xbb349ac6	-0.0027558072
97	0xbc519727	-0.012792385
98	0xbc842f31	-0.016135784
99	0x80001162	-6.236e-42
100	0x3c56c7b9	0.013109141
101	0x3c65ef04	0.014034037
102	0x3bb14cfb	0.005410788
103	0x39e20b8d	0.00043114685
104	0x3b8cca30	0.0042965636
105	0xbb994f01	-0.0046786075
106	0xbbb91341	-0.005648047
107	0xbc270463	-0.010193917
108	0x3c04154d	0.008061719
109	0xbbd46175	-0.0064813443
110	0x39c84a1e	0.00038202194
111	0x3c864ce7	0.016394092
112	0xbc097980	-0.008390784
113	0xbc85f2cd	-0.016351128
114	0x3c736976	0.014856687
115	0x3c061a18	0.008184932
116	0x0000028f	9.18e-43
117	0x80000962	-3.366e-42
118	0xbc7a415a	-0.01527437
119	0x3ca0f9e5	0.019650409
120	0x3baf34b4	0.005346859
121	0xbc4395c8	-0.011937566
122	0xbcd677b4	-0.026180126
123	0x3cb5b67f	0.022181747
124	0xbd21026b	-0.039308947
125	0xbbaebdc4	-0.0053326804
126	0x3cc62efd	0.024192328
127	0x8000045b	-1.562e-42

conv10.4.running_var f4 [128]
0	0x398a7b63	0.0002641334
1	0x394b39df	0.00019381147
2	0x38f96da1	0.00011893665
3	0x393f816e	0.00018263396
4	0x396c68c1	0.00022545738
5	0x39804a57	0.0002446945
6	0x39e07883	0.00042814398
7	0x391af9f7	0.00014779704
8	0x393ae2da	0.00017822851
9	0x3906e835	0.0001286574
10	0x00000004	6e-45
11	0x392c2f41	0.00016420802
12	0x39872f87	0.00025784617
13	0x3969e5e9	0.0002230626
14	0x394b6abf	0.00019399355
15	0x3996a6e2	0.00028734567
16	0x391a71fd	0.00014729048
17	0x390e72e4	0.00013584975
18	0x398e6960	0.0002716286
19	0x398c953e	0.00026814075
20	0x39be902a	0.00036347035
21	0x39282140	0.00016034115
22	0x39174ba8	0.00014428666
23	0x38e54cff	0.000109339126
24	0x39770bf1	0.00023560204
25	0x39170263	0.00014401371
26	0x00000004	6e-45
27	0x39359e97	0.00017320584
28	0x39a8bc1b	0.00032183607
29	0x39450127	0.00018787813
30	0x39444d08	0.00018720713
31	0x39496950	0.00019208086
32	0x3936f118	0.00017446687
33	0x38f63934	0.00011740849
34	0x399b319f	0.00029600874
35	0x39bef7de	0.000364243
36	0x391c93f6	0.00014932439
37	0x390d2b29	0.00013462886
38	0x39491539	0.0001917676
39	0x39605e78	0.00021397497
40	0x396ad12c	0.00022393902
41	0x39433bff	0.00018619
42	0x393f1de5	0.00018226316
43	0x3955406d	0.00020337263
44	0x3937dd16	0.00017534601
45	0x00000004	6e-45
46	0x390c5017	0.00013381276
47	0x00000004	6e-45
48	0x38f57473	0.00011704201
49	0x39296f8f	0.00016158655
50	0x395acf50	0.0002086733
51	0x39334cff	0.00017099454
52	0x39ffe399	0.00048806964
53	0x00000004	6e-45
54	0x38616522	5.3738368e-05
55	0x39821b94	0.0002481608
56	0x38c022ea	9.161777e-05
57	0x398c4ba4	0.00026759238
58	0x3976e49f	0.00023545556
59	0x393edc31	0.0001820184
60	0x00000004	6e-45
61	0x3970fb0f	0.0002298171
62	0x391298da	0.00013980587
63	0x39711832	0.00022992564
64	0x394ca94e	0.00019518027
65	0x39f3bc9b	0.00046489094
66	0x38fe3399	0.000121212746
67	0x394df8a6	0.00019642952
68	0x3943a0cd	0.00018656552
69	0x3939d8f7	0.000177238
70	0x3988936e	0.00026049785
71	0x391a01c4	0.00014687242
72	0x396b5fe7	0.00022447073
73	0x39444ecb	0.00018721369
74	0x39bbdaab	0.0003583034
75	0x397286fc	0.00023129204
76	0x399131e6	0.00027693732
77	0x3911047b	0.00013829947
78	0x396274e6	0.00021596588
79	0x3931af5a	0.00016945359
80	0x396d40a6	0.00022626165
81	0x39161ddf	0.00014316243
82	0x395ae65f	0.0002087592
83	0x39393539	0.00017662802
84	0x39438277	0.00018645251
85	0x399a5973	0.00029439814
86	0x00000004	6e-45
87	0x38caaee0	9.6646836e-05
88	0x395c728f	0.00021023511
89	0x3901cc73	0.00012378562
90	0x38e8fc3b	0.00011109604
91	0x3932d0cf	0.0001705319
92	0x392e3208	0.00016612571
93	0x3970dfc9	0.0002297155
94	0x3952a1a1	0.00020087372
95	0x39297ec2	0.00016164317
96	0x39737b08	0.00023220119
97	0x391b5903	0.00014815111
98	0x392c3628	0.00016423373
99	0x00000004	6e-45
100	0x394a2d1e	0.00019281029
101	0x3952464b	0.00020053347
102	0x38c890d7	9.563722e-05
103	0x38576a00	5.1358715e-05
104	0x395eadf0	0.00021236367
105	0x38dd1cee	0.0001054349
106	0x39900180	0.00027466938
107	0x3940a118	0.00018370559
108	0x38cd76eb	9.797312e-05
109	0x39cafe9c	0.0003871814
110	0x3927ad32	0.00015990881
111	0x39505705	0.00019868843
112	0x393f59e0	0.0001824866
113	0x394f4203	0.0001976565
114	0x392ceed2	0.00016492166
115	0x3915793e	0.00014254914
116	0x00000004	6e-45
117	0x00000004	6e-45
118	0x39879dfd	0.00025866917
119	0x39bf07cb	0.00036436165
120	0x398e6fd2	0.00027167663
121	0x3962bb03	0.00021622707
122	0x3945dbf0	0.00018869317
123	0x3965962a	0.00021895082
124	0x39389800	0.00017604232
125	0x39884f6f	0.00025999124
126	0x39c05380	0.00036683306
127	0x00000004	6e-45

conv10.4.weight f4 [128]
0	0x3d59528b	0.053057235
1	0x3d7b86e8	0.061407954
2	0x3d4a5e12	0.04940612
3	0x3d6ca07b	0.057770234
4	0x3d546396	0.051852785
5	0x3d35ad31	0.04435462
6	0x3d534b1f	0.051585313
7	0x3d7a2a89	0.06107572
8	0x3d36cb3a	0.044627406
9	0x3cd59b5e	0.026075061
10	0x000004b6	1.69e-42
11	0x3d8f25d8	0.0698964
12	0x3d0cf62b	0.03441445
13	0x3d4b700a	0.049667396
14	0x3d09781f	0.033561822
15	0x3d41a65c	0.047277793
16	0x3d5b8375	0.053592164
17	0x3d6d151d	0.057881463
18	0x3d8a8a32	0.0676464
19	0x3d452884	0.04813434
20	0x3d44503a	0.047928073
21	0x3d5349cc	0.05158405
22	0x3d6b8ac0	0.05750537
23	0x3d169175	0.036759812
24	0x3d6a7438	0.05723974
25	0x3d0fbfda	0.035095073
26	0x00001db8	1.0661e-41
27	0x3d3d4ed6	0.046217762
28	0x3d58271f	0.052771684
29	0x3d27a95a	0.04093299
30	0x3d514673	0.051092576
31	0x3d757172	0.059922643
32	0x3d2f3c5f	0.042782184
33	0x3d1e81df	0.038698073
34	0x3d2485ca	0.040166654
35	0x3d5f1bd3	0.054469895
36	0x3d5aa5fb	0.053380948
37	0x3ce80189	0.028321045
38	0x3d66faa0	0.05639136
39	0x3d33f11f	0.043931123
40	0x3d68e9ff	0.05686378
41	0x3d21f663	0.039541613
42	0x3d0fdae0	0.035120845
43	0x3d8f2e2e	0.0699123
44	0x3d6c2cd6	0.057659946
45	0x00000d46	4.762e-42
46	0x3d7735e4	0.06035413
47	0x00001c4b	1.015e-41
48	0x3d1ac8ec	0.03778927
49	0x3d36d819	0.04463968
50	0x3d817500	0.06321144
51	0x3d646691	0.055761877
52	0x3d8da073	0.06915369
53	0x8000121f	-6.5e-42
54	0x3d3d9abf	0.046290156
55	0x3d716cac	0.05894153
56	0x3d648c0d	0.055797625
57	0x3d70664c	0.058691308
58	0x3d5735e0	0.052541614
59	0x3d5089d7	0.050912704
60	0x00001c4b	1.015e-41
61	0x3d406913	0.046975207
62	0x3cf7f091	0.030266078
63	0x3d76b3d7	0.060230102
64	0x3d4445c0	0.04791808
65	0x3db6e528	0.08930427
66	0x3d167599	0.036733244
67	0x3d599c18	0.05312738
68	0x3d7a6b4d	0.061137486
69	0x3d5480df	0.051880714
70	0x3d2fefdf	0.04295337
71	0x3d65adcb	0.056073945
72	0x3d599e97	0.05312976
73	0x3d65ded5	0.056120712
74	0x3d3e7bd1	0.0465048
75	0x3d192410	0.037387908
76	0x3db73178	0.08944982
77	0x3d64f92b	0.055901688
78	0x3d1b6275	0.037935693
79	0x3d80b0db	0.062837325
80	0x3d3b85da	0.045781948
81	0x3d479066	0.048721693
82	0x3d40ded4	0.047087505
83	0x3d873662	0.066021696
84	0x3d446d50	0.04795581
85	0x3d98efc6	0.07467608
86	0x80000a13	-3.614e-42
87	0x3d39b12a	0.045334972
88	0x3d7c2fb0	0.061568916
89	0x3cf288a4	0.029606171
90	0x3d334388	0.043765575
91	0x3d6b1c3b	0.05739997
92	0x3d2c13e8	0.04201117
93	0x3d6721b5	0.05642863
94	0x3d11c9a1	0.03559268
95	0x3d49daf2	0.04928107
96	0x3d3be516	0.04587277
97	0x3d593222	0.053026326
98	0x3d925824	0.07145718
99	0x0000053f	1.882e-42
100	0x3d6eab49	0.05826882
101	0x3d135a84	0.035974994
102	0x3d683403	0.056690227
103	0x3cffa562	0.03120679
104	0x3d1e2f46	0.038619302
105	0x3d4b0606	0.04956629
106	0x3d7e5c2a	0.062099613
107	0x3d4d645b	0.050144535
108	0x3cee650e	0.029100921
109	0x3d7245a9	0.059148464
110	0x3d474f75	0.04865976
111	0x3caeefba	0.021354545
112	0x3d18e7d9	0.037330482
113	0x3d01881d	0.03162395
114	0x3d84bdbe	0.06481503
115	0x3d8f78b9	0.07005448
116	0x000002b4	9.7e-43
117	0x00000359	1.201e-42
118	0x3d9986bf	0.07496404
119	0x3d5b5aa6	0.053553246
120	0x3d289ab2	0.041163154
121	0x3d6f2074	0.05838056
122	0x3d257d8e	0.04040294
123	0x3d413b6a	0.047175802
124	0x3d4145ce	0.04718571
125	0x3d7dac4c	0.061931893
126	0x3d030714	0.031989172
127	0x00000383	1.26e-42
